gru_chaotic_model.pth (torch, 600538 bytes, 9 tensors)

gru.weight_ih_l0 f4 [384, 1]
00000000: 7563 09bc 3533 97be 7357 99be 3ef9 aabe
00000010: e93a cfbe 23bf 99bd 5482 bfbe a7d5 01bf
00000020: ca33 2bbe f40e 8ebc 008a 96be 88cc e63b
00000030: 790c e8bd 1f7d 78be 2d2c d4be dce6 6dbe
00000040: 51a4 d6be acff eb3d 3132 43be 55ff 08bf
00000050: c7b8 e2be 49e6 6dbe fe3c 8bbe a337 8ebe
00000060: f6f0 d0bc 10e0 66be 8181 48be 3805 3ebe
00000070: a7aa bebe 88f8 99be 2bb8 51be 2e88 0b3d
00000080: 4103 963c e6da 1c3d 4509 ecbc bc5f 28be
00000090: 1075 c23e 7c61 16bf 63da 06be 054a 8f3c
000000a0: 6acd c4be 3ba3 4a3d 2ea7 eabe e7b2 ebbe
000000b0: 7cdb 63be e56a 22bf 5ff2 1fbe b989 f0bd
000000c0: c5c8 ddbe 16f6 91be cb81 9dbe 0718 b3be
000000d0: 4ebe e73e acb9 07bd e019 27be 1a17 9fbd
000000e0: df3c 143e 76db 91be 8a5d 81be 3c1d 10bf
000000f0: 8eee 4cbe 8441 b6bd cec4 ae3d 8313 a5be
00000100: 8f82 9e3d 5848 90be 7ca7 d3bd c92c 78be
00000110: 75be 6bbe 5190 39be a8a9 4dbd eb9c 9dbe
00000120: ea0c 99be d47c 5f3d 9052 07be 8f71 06be
00000130: 5258 043e cb5c 98be 6773 eabe 75b4 dcbd
00000140: d913 fabd a0f4 15bf 7ca9 c1be e11d 0f3e
00000150: 40a7 17bf b46d f7be ec48 9dbc c721 e2be
00000160: 3c37 23be c58f c6be 3f11 cfbd 632c debe
00000170: 34a8 343e edc0 6ebc 0160 86be 9ac6 cebb
00000180: 95dd efbd 8d95 82be 54ca d3be 362c 12bf
00000190: 3b2a d8be 5455 2ebe 10f0 85be ca9b 283d
000001a0: 828e 66be 02b7 04bf fb06 38bd 6547 7abe
000001b0: 4b3d 53be 2171 0ebf 38e4 69bd 8b20 48be
000001c0: 4cdd 51be 76a4 0bbd e62f cfbe b18d a63c
000001d0: e089 c2be 4229 33be d911 00be b16d 9abe
000001e0: 5166 10bb 685e d0be 7d87 12bc c72c c8be
000001f0: c582 92bd d6db 94be 5433 44be 4c7f 013e
00000200: 2e28 05be bd01 30be a27f 41bd f32a f5bd
00000210: d3fd c7bd 621d 90bd 5282 503c 3780 913d
00000220: c4ae eabd 2d4a cabc 8358 b6bd 020a b33d
00000230: 3d7d 1ebe c816 46be d018 eebc b0de d4bd
00000240: a900 a73d cce9 91be bc7e cabd 93c8 f8bc
00000250: cd1d 09be 9dbf 283e 3c8d 1ebe 09a8 0fbe
00000260: b6f9 98bd e1be 2fbe 850d a2bd a2f6 40bd
00000270: f9e7 263d 9038 8b3c bc7d c7bd 49ea 79be
00000280: 214e a3be b097 e2bc a32a 5cbe 5472 e3be
00000290: c8c1 78be 2aa2 debc bda9 60be edc1 90bd
000002a0: 4880 a0bd 99dc 6f3c 8c24 02bd 5367 0fbe
000002b0: a663 9fbd d09c adbd e12a 4ebe 7980 7cbe
000002c0: 31aa 45be b69a 803c 9dd3 513d 57b2 2ebe
000002d0: e03c 1abe 0e4c dd3d fc60 a53d 705a 8a3d
000002e0: cc9a aa3e b624 9ebd 5db8 86bc 7c3f febc
000002f0: 0962 95bd 575c 54be a5b6 f5bd f4b6 a3bd
00000300: a74f a5bd b34a 64be ec88 47be 4ebb 9ebb
00000310: 93d6 d73d c16a 52be 9ea7 9c3c a252 c3bd
00000320: e400 e4bd 1ecf edbd 84ad a53d 1dca e23e
00000330: 1fbe e0bd 06e6 5fbe df87 0f3c fad3 9ebd
00000340: bc2b 1dbe d6d1 d8bd d3b6 1fbe 9294 8bbe
00000350: 69b0 e2be 5089 35bd 0fb6 44be 16bd ab3c
00000360: bbb9 2dbd 70b9 b93e f306 96bd 79a0 923d
00000370: 9bc8 95bd c33b d3bd 4787 f3bd 2f9c 9cbe
00000380: 27ea 943c 0ba1 0d3f cb3f 34be 6e2e f4bd
00000390: c4fc 18be 199c a8bd 055e d8bc 6575 cf3d
000003a0: 7495 12bd 6ba7 2fbe 9a7c 00be 4b1f 2ebc
000003b0: df1e 9bbe b55f 77be 752a 7bbd 75fb 51be
000003c0: 990a b53b 6f66 34be 1101 3ebd 825e 54be
000003d0: 44bb 703c 73d8 30be 64a8 babd 5b2a 49bd
000003e0: dc50 d63d 74f3 223d 70f7 7fbe 9ecc 8cbd
000003f0: 102f 3bbc 241a 463f 3983 c93c aa83 0b3c
-0.008385529 -0.29531255 -0.2994953 -0.33393282 -0.40474632 -0.075071596 -0.3740412 -0.5071663
-0.16718975 -0.017341115 -0.2940216 0.007043425 -0.11330504 -0.2426648 -0.41439953 -0.23232597
-0.41922238 0.11523375 -0.19062115 -0.53514606 -0.442816 -0.23232378 -0.2719497 -0.27776822
-0.025505524 -0.2254641 -0.19580652 -0.18556678 -0.37239572 -0.30072427 -0.20480411 0.034065418
0.018312098 0.038294695 -0.028813014 -0.1644277 0.37979937 -0.587425 -0.13169245 0.01749135
-0.38437968 0.049472075 -0.45830673 -0.4603493 -0.22251695 -0.6344436 -0.15619801 -0.117450185
-0.43317237 -0.2850806 -0.30763087 -0.3497927 0.45262378 -0.033136055 -0.16318464 -0.07768078
0.14476345 -0.28487748 -0.25266677 -0.5629461 -0.20012876 -0.08899215 0.08533631 -0.3224145
0.07739746 -0.28180194 -0.103346795 -0.24235834 -0.23021872 -0.18121459 -0.050210625 -0.3078378
-0.29892665 0.054562405 -0.13215089 -0.13129257 0.12924317 -0.29758295 -0.4579117 -0.10776607
-0.12210817 -0.58576393 -0.3782462 0.13976242 -0.5923958 -0.48325884 -0.01919981 -0.44166395
-0.15939039 -0.38781562 -0.10110711 -0.4339324 0.1764229 -0.014572364 -0.2624512 -0.0063102962
-0.11712185 -0.25504723 -0.41365302 -0.5709871 -0.4221972 -0.17024738 -0.26159716 0.041164197
-0.225153 -0.5184175 -0.044928532 -0.24441297 -0.2062885 -0.5564137 -0.057102412 -0.19543664
-0.20494574 -0.03409239 -0.4046623 0.020331236 -0.37995815 -0.17496207 -0.12506808 -0.30161813
-0.0022033642 -0.40697026 -0.008943436 -0.39096662 -0.071538486 -0.29073972 -0.19160205 0.12646216
-0.13003609 -0.17188163 -0.04724086 -0.119710825 -0.0976521 -0.07036854 0.012726383 0.07104533
-0.11459115 -0.024693573 -0.08903601 0.08742143 -0.15477462 -0.19344628 -0.029064566 -0.10394037
0.08154423 -0.28498685 -0.09887454 -0.030369079 -0.13390274 0.16479345 -0.15483564 -0.14028944
-0.074695036 -0.17162658 -0.07912735 -0.047110207 0.04074857 0.016994745 -0.09740779 -0.24405779
-0.31895545 -0.02766022 -0.2150064 -0.44423163 -0.24292672 -0.027176935 -0.2193975 -0.070682384
-0.07836968 0.014639997 -0.031773135 -0.14004259 -0.07782678 -0.08477175 -0.20133545 -0.24658383
-0.19303204 0.015698772 0.0512272 -0.17060219 -0.15062284 0.10805522 0.08075139 0.06755531
0.33321226 -0.07721846 -0.016445333 -0.031036131 -0.07294089 -0.2073835 -0.11997727 -0.0799388
-0.08071833 -0.2229412 -0.19485825 -0.004844106 0.10538974 -0.20548536 0.019122895 -0.09537245
-0.111329824 -0.1161177 0.08089736 0.44294825 -0.10973763 -0.2186509 0.008760422 -0.07755275
-0.15348715 -0.10586898 -0.15597086 -0.27261788 -0.44275215 -0.044320405 -0.19210075 0.020964187
-0.042413455 0.3627429 -0.07325544 0.07159514 -0.07313653 -0.10314133 -0.118910365 -0.3058791
0.018178059 0.5532386 -0.1760246 -0.11922918 -0.14940172 -0.08232898 -0.02641202 0.10129813
-0.03578706 -0.17153709 -0.12547532 -0.010627578 -0.3029699 -0.24157603 -0.061319787 -0.2050608
0.005524945 -0.176172 -0.046387736 -0.20739177 0.014693085 -0.17270069 -0.09114149 -0.04911266
0.104646415 0.039782956 -0.24996734 -0.06874965 -0.011424795 0.7738364 0.024598705 0.008515278

gru.weight_hh_l0 f4 [384, 128]
00000000: 1c31 ff3d 9acd 3c3e ab68 c43c fe79 26be
00000010: e45f 003e 6827 b9bd de05 113e 1632 fabd
00000020: 09e0 c43d c76e fcbd c853 323b 6272 b3bc
00000030: e8e5 ccbd 5213 14bd f4e6 9b3c 6124 e13d
00000040: 4db8 a03d f5d8 383d f184 e5bd ba28 8a3c
00000050: defa 883d 9da9 0f3e cb9c 7d3d 3ad1 b4bd
00000060: fb63 143c c24e 0bbe 6ae5 933c 2705 09be
00000070: 0872 b8bd db3d 15bd e92a a5ba c45d 133e
00000080: 9624 a43d 8a25 3f3d a526 d8bd 71ad 05be
00000090: 36da 383d 06f7 853d 081f 6d3d d054 94bd
000000a0: ba7a bc3d e536 2ebe c8bf 203e 1c3c dd3a
000000b0: 5976 1bbe fb2c 0a3c 4bb3 6f3c 6ddc cdbc
000000c0: 4de7 063e c352 be3d 84b0 963d c401 53be
000000d0: 89dd 0f3d 5f9b 83bd 50d5 0a3d 13e2 22be
000000e0: 8e87 f0bd c943 a93d 7c2d 3cbd 6566 f33c
000000f0: a773 06bd 7e0e bebd e2ed 883d dc7c e53d
00000100: 8d82 01be 145b 573e b064 2b3d 5456 4d3d
00000110: 48cb fabd 8df2 8fbd d4d1 203e 2aec 30be
00000120: f831 e73d 161e 1cbd 322e 523e 0911 b63d
00000130: c1c3 bbbd 7a7a d23c fe72 95bd e671 f23d
00000140: c7fc d0bd f0f6 c73d 4bb6 ae3d 2255 293e
00000150: bf7d 3f3e 51cd fa3d 27c9 573e 0649 3c3e
00000160: eeb2 483d d1a8 54bd b22e 44bc b35f 233d
00000170: 9f1c a33c c47f d5bc e930 c43c 9b95 063e
00000180: 5623 ec3c be47 0abe a385 8bbc 3649 27bc
00000190: f320 053d ff32 82bd 8b0b 13bd 86ca d3bc
000001a0: bb2f b73d a5e8 89ba ad59 e83d 0115 e23d
000001b0: 1f16 4dbd 81b2 483e 9424 8ebd cfbf 583d
000001c0: 2116 813d cd91 373c 4c80 c5bd 53d5 1a3d
000001d0: eae8 b9bc 66c9 bf3c e0b8 81bd 4b4c 093d
000001e0: e2b3 513c 1582 fe3c a31a 1c3d 507b 413d
000001f0: 8fc1 c4bc d499 763d 2b0f 09be f189 08bd
00000200: e8ea 09bd 9b7a 143d 6109 403d 90e3 27bd
00000210: 5a04 b9bd e36e 1ebd dda4 a83d aa3f 7a3d
00000220: 8541 883d e4fc fcbd 24e6 d33d 75de 89bd
00000230: 705f 053d 6a03 0fbd 37ea 403d d4dd 80bd
00000240: f79c eb3d 6622 a2bd d129 d3bd 3017 d0bc
00000250: 5433 11ba 272f c03d 987b ff3a 7c6b 09be
00000260: 664f 82bb 4898 b3bd 4cd8 1f3d 2a56 073d
00000270: ff83 493c 496c c3bb 049a 9c3d 4855 8ebd
00000280: c91e c2bd 8ce3 21be 407f 8b3d 2f16 f23b
00000290: 21e6 c73d 5a88 92bd c8cd 803c 65f9 33be
000002a0: 1f1d b73d 436e 3fbe ad62 103d ea29 5abd
000002b0: ac4f 1abe b204 dc3d 2a6b cb3b 1b48 4cbe
000002c0: 7b0b f83d 9ae7 2e3d e03e cdbc 8ab8 cfbb
000002d0: ed0e 123e 93aa d5bd 073d ef3c 980c cebd
000002e0: a05b 9a3d 72b6 fc3d 6951 f8bd 8e27 abbd
000002f0: bdfd 2d3d a273 7c3d 8531 1a3e 1f45 09bd
00000300: b888 133e 21ab acbd 5098 b13b 7153 38bd
00000310: 9797 54be 3239 363d 936d 173e 2a5d 90bd
00000320: 633b 0e3e e712 25be 19b9 35be 9635 1dbe
00000330: 0017 fabc 04bf 9a3d 6f9f 1b3d 6417 4e3d
00000340: e2d1 a8bd 03e2 893c 2626 36bc 3f09 82bd
00000350: b0df 62bc ab14 5b3d 1aef 7abd fb59 573d
00000360: c222 f9bc b36a eb3d 0d24 96bd 3f8c 91bc
00000370: 6457 d33d dbbc 723c 41d3 1f3d ec0b 123c
00000380: 02c2 a8bc 72ce 453c f034 d13c 682e 4bbd
00000390: e666 89bb 30dc 11be ef58 a6bd b672 c33d
000003a0: 6c69 233e d292 a63d 21a7 2c3e 96e7 22bd
000003b0: 4053 113d 174d 093e 9be4 923d 1e83 c1bd
000003c0: 2d30 e3bc 28c0 2a3e 62bf bcbd b752 b3bd
000003d0: 45e1 afbc fc84 53bd 92fe 3f3d 4ce3 733c
000003e0: d12d b3bd cfab 7fbd 8a19 a93d f7ff 053e
000003f0: 70e1 993d 08cc 7d3e 36a1 083e e688 343d
0.12460539 0.18437806 0.02397569 -0.16257474 0.1253658 -0.09040719 0.14162394 -0.122165844
0.09613044 -0.123258166 0.0027210582 -0.021905128 -0.10004789 -0.036151238 0.019031025 0.10993267
0.078476526 0.04512878 -0.11206997 0.016865123 0.06688474 0.14029546 0.061917108 -0.08828969
0.00905704 -0.13604262 0.01805373 -0.13380872 -0.09006125 -0.036435943 -0.0012601289 0.14391237
0.08014791 0.04666666 -0.10554246 -0.13054444 0.045129977 0.065412566 0.05789092 -0.07242739
0.09203096 -0.17013128 0.15698159 0.0016878876 -0.15181865 0.008433576 0.014630149 -0.025129521
0.13174172 0.09293129 0.073578864 -0.20606142 0.03512338 -0.06426119 0.033894837 -0.15906553
-0.11744605 0.08264882 -0.045941815 0.029711911 -0.03282514 -0.09280108 0.066859975 0.11205456
-0.12647457 0.21030837 0.04184407 0.050131157 -0.12245804 -0.07028685 0.15705043 -0.1727759
0.11288828 -0.03811463 0.20525435 0.08889968 -0.091681965 0.025693167 -0.07297324 0.11838131
-0.102044635 0.097638965 0.085308634 0.16536382 0.18700312 0.12246192 0.21072827 0.18387231
0.048998766 -0.05191881 -0.011974024 0.039886188 0.019911109 -0.0260619 0.023949103 0.13143007
0.028825443 -0.1350393 -0.017031496 -0.010210326 0.032502126 -0.06357383 -0.03589968 -0.025853407
0.08944651 -0.0010521604 0.11345229 0.110391624 -0.050069924 0.19599344 -0.069405705 0.052917298
0.06303049 0.011204195 -0.09643611 0.037801098 -0.02269407 0.023411464 -0.0633409 0.033520024
0.012799235 0.031067887 0.03811134 0.04723674 -0.024018077 0.060205296 -0.13384692 -0.033334676
-0.03367129 0.03624974 0.046883944 -0.040988505 -0.09034033 -0.03867997 0.0823457 0.06109587
0.06653122 -0.123529226 0.1034663 -0.067318834 0.03256172 -0.034915365 0.047098365 -0.0629231
0.11504548 -0.07916717 -0.1031071 -0.025401682 -0.00055389595 0.093839936 0.001949179 -0.13419908
-0.00397675 -0.0876928 0.039024636 0.033041157 0.012299537 -0.0059638363 0.07646564 -0.0694986
-0.09478528 -0.15809458 0.068113804 0.0073878984 0.097606905 -0.07154913 0.015723124 -0.17575605
0.08941101 -0.18694405 0.035250355 -0.05326263 -0.15069455 0.10743083 0.0062078433 -0.19949381
0.12111565 0.04270134 -0.025054395 -0.0063391374 0.14263506 -0.10432925 0.029203905 -0.10060996
0.07537007 0.12339486 -0.12124903 -0.08357154 0.04247831 0.061633714 0.15057953 -0.033513185
0.14407623 -0.08431078 0.0054197684 -0.04500145 -0.20760952 0.04448814 0.14787893 -0.0704902
0.13889842 -0.16120492 -0.1774639 -0.15352473 -0.030528545 0.075559646 0.037993845 0.050315276
-0.08243157 0.016831404 -0.011117494 -0.0634942 -0.013847277 0.053486507 -0.06126318 0.052576046
-0.030412082 0.11494961 -0.07331095 -0.01776707 0.10319403 0.014815534 0.039019827 0.008913975
-0.020600323 0.012073146 0.025537938 -0.049604803 -0.0041931747 -0.14244151 -0.081224315 0.09543364
0.15958184 0.081334725 0.1686063 -0.03977164 0.035479784 0.13408314 0.07172509 -0.09448837
-0.027732933 0.16674864 -0.09216191 -0.08756011 -0.021469722 -0.051640496 0.046873637 0.014885735
-0.08748973 -0.06241971 0.08256824 0.13085924 0.07513702 0.24784863 0.13342747 0.04407587

gru.bias_ih_l0 f4 [384]
00000000: 08f3 d2bc 74a5 60be be31 18be 184c bfbd
00000010: e43f 64be 2a03 9cbe 6014 12be b5de c2bd
00000020: b67d 44be eafd 9ebd 30b1 36be 5c9d 87be
00000030: 49ba 7cbd 333b 8cbd 39a2 86be f11f 05be
00000040: 8ee3 16be f683 1dbe 56ef 5ebe 8042 31be
00000050: 0cc5 9dbd 8c88 edbd aeff e1bd 2d55 86be
00000060: 3c2e 1cbe ae0e 13be 6f1d 87be d40e 5cbd
00000070: e5e5 0bbf cdb2 94bd ab74 59be 3e15 70be
00000080: 74ec f03c 765d 113d d7af 4bbe e9fe 5ebe
00000090: 0e6b 3cbd d8b4 0abe e4ac 32be 635f 663d
000000a0: 446e f1bd 5569 44be 2409 2cbe efee 67be
000000b0: 95c5 23be 290d 88be 7ce7 d2bd fc82 1ebe
000000c0: a7e3 10be 4f3e 21bc 267a 933b 4f35 96be
000000d0: 08e8 b3bd b5ee 39be 161a 28be 801d 9bbd
000000e0: 20b1 63be b23c 9cbc 492e 57be 909a 8fbe
000000f0: 4e7d 14be ebaf e23d 28da 18bd f1db 8abe
00000100: c370 1b3d 808f 57be 7529 17be 9988 4fbc
00000110: 20a2 24be b75e 99bd 324c b5bd 6a54 0ebe
00000120: bae0 6fbd 67b0 343d 35d6 1a3d d770 dabd
00000130: 8021 62bd 23d2 0fbd abb1 c8bd 3681 dbbd
00000140: e557 1e3c 9542 a4bd c1a3 4bbe 10f2 c1bd
00000150: 9f91 31be 5709 bbbd 7bcd adbd 2347 bcbd
00000160: 203a 8ebd 72c5 f7bc 6ac3 85bd 2d0a b8bd
00000170: 49d7 683c 45c0 2dbe f208 c3bd a8c1 c1bd
00000180: d720 e5bd 89f4 abbe 5cab 0ebe ffce 15be
00000190: 6708 28be ac64 77be 2a85 5dbe 30ce d3bd
000001a0: 5508 03be 0e22 59be 422e 68bd a1a6 15be
000001b0: 795b 9bbe ee09 27be bc3f dbbd d858 f5bd
000001c0: 5a2d d6bd 4425 30be 2ac1 adbd 3501 6cbe
000001d0: d648 00be b077 42be d9e9 fdbd c68f abbd
000001e0: 02c2 eabd a201 8b3b 3d65 bf3c 9a2f b3bd
000001f0: cdda 8fbe d93a 223b 6e91 88bd 3067 23be
00000200: 989b bf3b f2c7 5ebe 8bfc 3ebe afa2 d0be
00000210: e5e8 1abd 3cdd 59be 8d65 33bc 48c2 3dbd
00000220: 9b4b bfbd 478b 3cbe 19c0 09be 0fa7 69bc
00000230: f515 66be 42ab e6bd ee36 4ebe 0a7c 29be
00000240: f824 c23c cc76 833b 3dfb 233d b20f 42be
00000250: 9fe3 debd 1b04 333e c988 9bbc f842 2bbe
00000260: e49e a03c 9058 b2be a2a2 bcbd 43e9 c93d
00000270: 2f67 9b3c 64dc a8bb d8ff 96bd 5d11 47be
00000280: fcd7 afbe 38ea 2d3d f349 76be 3b33 88be
00000290: 0a03 ba3e e9ea d0bd 9540 f5bd 0a27 adbe
000002a0: 3331 833d 8cbd 09bd c9c2 46bc b607 97be
000002b0: 42e8 aabb 3ab8 ecbd 4f46 88be 8448 cabe
000002c0: e5ba 27be c05e 073c 9e6a 46be cbb1 48bd
000002d0: 154c 0b3e ab34 0e3e 7001 843d 9879 3a3e
000002e0: a063 133f 8804 61be 8624 89be 8da7 5ebe
000002f0: 3293 c4be 7d10 80bd 85a4 163e df0d e4bd
00000300: ff30 0c3c 0b33 b5be 2efe 4abe f0f0 b3bd
00000310: c9f4 24bd a2d5 5ebe 3356 8ebe f492 dabc
00000320: 32dd 0ebd 46d5 9cbe d479 873e daf8 d63e
00000330: 8791 0c3e 2269 a0be 0af5 11be 8354 76be
00000340: afec 5fbe 961f 063e bc46 82bd c099 b63d
00000350: f4ad 71be 6f00 5ebd 2351 c4be d9be cf3d
00000360: 7ce1 3bbe eb73 f5bb d951 16be 30bd 973d
00000370: 4439 c13e f60d d8bd 3b4a 81bc 482e 68be
00000380: 7e93 fabd 4c29 fb3e e81f 9fbd 0bf2 0abe
00000390: 90bb 1bbe 79a1 94bd 049f bfbc 0476 943c
000003a0: 6191 26bd f870 84be 8e0b 78be 8c70 75be
000003b0: 3120 cabe 03b8 0abe 1dd0 50be b7df 363c
000003c0: 532b fc3c 7de6 a9bd 8523 50be bf41 393e
000003d0: 0303 9c3c 07d9 4fbe da66 3ebe 6402 3cbd
000003e0: 86e7 a4bd 864a 1dbd 35fd bcbd 6db1 84bd
000003f0: c48e d4bd f244 b33e a551 bcbd f576 56be
-0.025750652 -0.21938115 -0.14862725 -0.093406856 -0.22289997 -0.30471164 -0.14265585 -0.09515134
-0.1918858 -0.07763274 -0.17841029 -0.26487243 -0.061701093 -0.06847229 -0.2629564 -0.13000466
-0.14735243 -0.1538237 -0.21770987 -0.17310524 -0.07703599 -0.1159831 -0.11035095 -0.2623686
-0.15252012 -0.14361069 -0.26389644 -0.05372508 -0.54647666 -0.07260666 -0.21235912 -0.23445603
0.029409625 0.035489522 -0.19891296 -0.21776928 -0.046000533 -0.13545549 -0.17448765 0.05624331
-0.117886096 -0.19180806 -0.16800362 -0.2264974 -0.1599334 -0.2657254 -0.102980584 -0.15479654
-0.14149342 -0.009841516 0.004500645 -0.29337546 -0.08784491 -0.18157466 -0.16416201 -0.07573986
-0.22235537 -0.01907191 -0.2101375 -0.2804761 -0.14500925 0.1106871 -0.037317425 -0.27120927
0.037949335 -0.21050835 -0.14761908 -0.012666845 -0.16077471 -0.074887685 -0.08852424 -0.13899389
-0.058563925 0.044113543 0.03780194 -0.10666054 -0.05520773 -0.03511251 -0.097995125 -0.107180044
0.00966451 -0.08020512 -0.19886686 -0.09469998 -0.17340706 -0.09132641 -0.08486458 -0.09193256
-0.0694468 -0.030245516 -0.06531413 -0.08986316 0.014211484 -0.16967876 -0.095231906 -0.09460765
-0.11187904 -0.33585003 -0.13932556 -0.14629744 -0.16409455 -0.24159497 -0.2163283 -0.103420615
-0.12796147 -0.21204397 -0.05668474 -0.14614345 -0.30343226 -0.16312382 -0.10705516 -0.11979836
-0.10457869 -0.17201716 -0.08484109 -0.23047335 -0.12527785 -0.1899097 -0.123981185 -0.08377032
-0.11462785 0.004242138 0.023363704 -0.08749314 -0.2809662 0.0024754314 -0.066683635 -0.15957332
0.0058474056 -0.2175596 -0.18651025 -0.40749118 -0.03781976 -0.212758 -0.010949505 -0.04632786
-0.093405925 -0.18412505 -0.13452186 -0.014261021 -0.22469313 -0.112631336 -0.20138142 -0.16551223
0.023699269 0.0040119644 0.04003452 -0.189513 -0.10883259 0.17482035 -0.018986123 -0.16724765
0.019607015 -0.34833193 -0.09210707 0.09858944 0.0189701 -0.0051532257 -0.07373017 -0.19440217
-0.3434447 0.042459697 -0.24051647 -0.26601586 0.36330444 -0.102010556 -0.11975209 -0.33818847
0.064058684 -0.03362803 -0.012131401 -0.2949807 -0.0052156756 -0.11558576 -0.2661614 -0.3950845
-0.16379888 0.008262336 -0.19376609 -0.04899768 0.13603242 0.13887279 0.06445587 0.18210447
0.5757389 -0.21974385 -0.26785678 -0.21743603 -0.3839355 -0.06253145 0.14711197 -0.11135458
0.008556603 -0.35390505 -0.19823524 -0.087861896 -0.040272508 -0.21761182 -0.2780014 -0.0266814
-0.034878917 -0.30631465 0.26460135 0.41986734 0.1372739 -0.3133021 -0.14253631 -0.24055676
-0.21867631 0.13097987 -0.06361148 0.08916044 -0.23601514 -0.054199632 -0.38343152 0.10143823
-0.18347734 -0.007490625 -0.1467966 0.074091315 0.37739003 -0.10549538 -0.015782466 -0.22673905
-0.12235163 0.49054945 -0.077697575 -0.13568895 -0.15208268 -0.07257361 -0.023391254 0.01812268
-0.040665988 -0.25867438 -0.24223158 -0.23968714 -0.39477685 -0.13546757 -0.20391889 0.011161736
0.030782377 -0.08295915 -0.2032605 0.18091486 0.019044405 -0.20297633 -0.18593922 -0.045900717
-0.08051972 -0.03840115 -0.09227983 -0.06479154 -0.10378793 0.3501354 -0.0919526 -0.20943816

gru.bias_hh_l0 f4 [384]
00000000: 0fcf cdbd 2163 74be 334a 10be b9f0 95bd
00000010: a326 0fbe 1d50 8fbe 800f 1dbe 9292 aabd
00000020: 7c35 02be 80bc 06be 4673 28be 479e 3cbe
00000030: daf2 073d a4a2 6fbd f759 c4be 000c 86be
00000040: e6ac 01be 39ab 69bd 9511 3bbe 2665 72be
00000050: a1b0 ffbc 46e7 a0bd b01e 59be dd4b 9dbe
00000060: eee4 03be cd55 05be 276a 83be cdf1 83bd
00000070: c1ab ccbe 7ee4 cbbc c9e6 5bbe 6483 c2bd
00000080: 1ddb 5ebc 2ec6 3b3d 2096 46be 6574 75be
00000090: d169 9f3d 47f2 82be 42cd 33be ecd9 903c
000000a0: 18aa ffbc db99 c7bd 543a 5ebe f40c e3bd
000000b0: 5ae6 24be 9684 a1be ed62 04be f6c8 81bd
000000c0: 3101 a1bd 9d11 3dbd d48c c83d 1bf7 97be
000000d0: 6655 9d3c 51ac 41bd c8b7 2bbd 83dc 3ebe
000000e0: 9922 07be b6b2 1cbe 6818 4dbe 2fdb 8fbe
000000f0: 3fc8 1ebe c356 bf3d 02bb 35be 69da f4bd
00000100: 3a40 09bd 409f 24be 97eb 1fbe c53c 2fbd
00000110: ae74 68be 0610 8dbd ee1a 24be e2db 4dbe
00000120: 9b5a c4bb cc0d 8b3d 9267 60bc 61d2 2ebe
00000130: af08 573d 944a 29be 9b82 37be eec0 cabd
00000140: 528f e3bd 2604 77be b76e 71be 353f 03be
00000150: 1f33 0abe 7c3d 14be bbeb 4ebe 3fcd 3dbe
00000160: e989 bdbd 23c0 8ebd f10f b5bd bf73 26be
00000170: 8941 b2bd edcf 06be 3c2d 09be ceda b3bd
00000180: 9937 91bd a58a a2be 10d6 ebbd 1ad8 7bbe
00000190: 7155 7dbd 2914 aabe 8cd5 77be 5c03 0cbc
000001a0: 06d2 12be f12b 73be 0d43 efbd 2d45 46bd
000001b0: 96a5 cabe d890 16be d269 28be 0774 4abe
000001c0: ffcb a3bd 38d2 a0bd b519 c3bd 3ca0 26be
000001d0: c927 2dbe 21fd 00be 56bd 40bb 8c0a 4ebe
000001e0: 04dd 82be b334 c23a 14fb 65bd 3bdd 9cbd
000001f0: 2838 9cbe 2c75 62bd 06d0 a6bd 95d2 6dbd
00000200: d89f 793d ad57 70be c913 21be 59eb b8be
00000210: d8b2 83bd 0a10 52be 9134 debd 3736 5e38
00000220: 5340 1bbe adb0 1bbe 8859 60be f1f9 c63c
00000230: ee73 c4be 5662 49bd f63a 1ebe d989 38be
00000240: ba07 473d e377 183d bd94 df3d 1d9b cbbd
00000250: 1017 89bd 5fd5 543e fe46 32be 8a42 08be
00000260: d45c 2b3d fd65 f2be 7bc0 2dbc efad 0b3e
00000270: 70ed 1cbd 605b 92bd 7362 f8bd f74a 0fbe
00000280: aed1 b9be 93e4 7fbc a95e 7dbe 4851 9dbe
00000290: dcb9 ae3e e45c 8fbd 5fab 58be b748 d0be
000002a0: 53c1 2fbd 2df7 df3d ea41 f23c 9379 8cbe
000002b0: 3da0 ae3c 61ff bdbd 38ed 76be ee59 c5be
000002c0: ccf3 37be 200e babb f14a 8cbe 6ba8 4d3c
000002d0: 6745 863e 3afe 803e dd5f 3bbc dddb 183d
000002e0: 7245 d33e 72ec 71be c53f 92be 248e 41be
000002f0: 997f aebe 33a4 473c da3e 2d3e 5e72 a4bd
00000300: cc6a bbbd 0262 f9be 3e64 87be 71e0 17be
00000310: 1a0a bcbd dc4a 7abe ede0 17be 535d babd
00000320: f737 5c3c 13ba 33be ef65 2b3e 1ff3 003f
00000330: 1b8e 133e 581a 5fbe 978a f4bd 711c 6abe
00000340: 08b7 79be c9e2 013e e2fc bbbd 3658 c83d
00000350: 1f77 89be 0964 873d 42d5 e6be c12e 7a3d
00000360: 0b4b 19be 1928 e63c 12da 54be fe9e 763e
00000370: 5985 ed3e 069b 78bd 0129 69bd e1ad 93be
00000380: eb20 43bd a7f0 1a3f 1b7b 12be 9e2f 58be
00000390: 46bf f6bd 5697 56bd cb6a 3fbd eb1b d1bd
000003a0: 47cd 1ebe 9aa3 0cbe 2d4b 43be 02c6 5abe
000003b0: be40 c3be 3eb9 6cbe b002 aabd ea20 75bb
000003c0: 69e3 b9bd f6cc 24be aa14 2dbe 4502 2f3d
000003d0: 69ce 0b3d 659d 01be 850c 1dbd abde efbd
000003e0: d6b3 b4bb cc3c 5cbd ce2e 673d 129f cdbd
000003f0: da3e d7bd 94c0 b53e f0cb 83bb 9fef 0bbe
-0.10049259 -0.2386594 -0.14090805 -0.07321305 -0.13979582 -0.2799081 -0.15337944 -0.08328737
-0.12715715 -0.13157845 -0.16450223 -0.18419753 0.033190586 -0.058504716 -0.38349888 -0.2618103
-0.12663612 -0.057048056 -0.18268426 -0.23671398 -0.031212153 -0.07856612 -0.21203113 -0.30721942
-0.12880298 -0.13021012 -0.25666925 -0.06442604 -0.39974788 -0.024889227 -0.21474756 -0.09497717
-0.013602045 0.045843296 -0.19393206 -0.23970182 0.07783855 -0.25575468 -0.17558768 0.017682038
-0.031209037 -0.097461425 -0.21701938 -0.11086455 -0.16103497 -0.31546468 -0.12928362 -0.063371584
-0.07861555 -0.046159375 0.09792486 -0.29680714 0.01920576 -0.047283474 -0.041923314 -0.18638806
-0.13196792 -0.15302548 -0.20028841 -0.2809691 -0.15506075 0.0934272 -0.17747119 -0.11955721
-0.033508517 -0.16076374 -0.15617214 -0.042782564 -0.2270076 -0.06887822 -0.16025898 -0.2010341
-0.0059922463 0.06789741 -0.013696568 -0.1707244 0.052498516 -0.16532356 -0.17920916 -0.0990008
-0.111113206 -0.24122676 -0.2357739 -0.1281708 -0.13496064 -0.1447658 -0.20207112 -0.18535326
-0.0925482 -0.06970241 -0.08840931 -0.16255091 -0.08703906 -0.13165255 -0.13396162 -0.08781968
-0.070906825 -0.31746402 -0.115154386 -0.24594155 -0.06184906 -0.33218506 -0.24202555 -0.008545723
-0.1433793 -0.23747231 -0.11682711 -0.048405815 -0.39579457 -0.14703691 -0.16446617 -0.19770823
-0.079978935 -0.07852596 -0.095263876 -0.16272062 -0.16909708 -0.12596561 -0.0029409728 -0.20121211
-0.25559247 0.0014816731 -0.05614765 -0.07659384 -0.30511594 -0.055287525 -0.08145146 -0.058062155
0.060943455 -0.23470946 -0.15730204 -0.36117056 -0.06430596 -0.20513931 -0.1084987 5.2979416e-05
-0.15161256 -0.15204115 -0.21909153 0.024289103 -0.38369697 -0.049166046 -0.1545218 -0.18021335
0.048591353 0.037223708 0.109170415 -0.09941695 -0.06693852 0.2078452 -0.17409894 -0.13306633
0.041836575 -0.47343436 -0.010604973 0.13640569 -0.038312376 -0.07146335 -0.12128153 -0.1399344
-0.36292785 -0.015618461 -0.24743141 -0.30726075 0.34126174 -0.07000139 -0.21159123 -0.40680477
-0.042908978 0.10935817 0.029572446 -0.27436504 0.021316642 -0.09277225 -0.2411393 -0.38545173
-0.17964095 -0.0056779534 -0.27400926 0.012552361 0.26224825 0.2519396 -0.01143643 0.037319053
0.4126392 -0.23625353 -0.28564277 -0.18901879 -0.34081724 0.012185144 0.16918507 -0.08029626
-0.09151229 -0.48707587 -0.26443666 -0.14831711 -0.09181614 -0.24442619 -0.14831896 -0.090998314
0.013441077 -0.1755145 0.16738103 0.50370973 0.14409678 -0.21787393 -0.119404964 -0.22862412
-0.24386227 0.12684168 -0.09179093 0.0978245 -0.26848695 0.06610877 -0.45084578 0.061079744
-0.14970033 0.028095292 -0.20786312 0.24084088 0.463908 -0.060694717 -0.05692387 -0.28843597
-0.047638815 0.60523456 -0.14304774 -0.21111915 -0.12048201 -0.05239042 -0.046732705 -0.10210403
-0.15507995 -0.13734284 -0.19071646 -0.21364596 -0.38135332 -0.2311754 -0.08301294 -0.0037403652
-0.09076578 -0.16093811 -0.16902414 0.042726774 0.034132395 -0.12657697 -0.038342018 -0.117123924
-0.005514602 -0.053768918 0.05644112 -0.10040106 -0.10510035 0.35498488 -0.004022114 -0.13665627

gru.weight_ih_l1 f4 [384, 128]
00000000: 762d 07bf 6b6e 51be 6218 d63e 307b 30bf
00000010: 01fb 28bd 664b 3ebf 4e27 38be 246e 33bf
00000020: 4e25 7b3f 9302 4fbf fabc 54bf 7ae3 443f
00000030: 99ae bfbd d5cd a93e 08d0 4d3f fb4f 4a3f
00000040: c12d f93e 566a 353e 59ca 6bbf ad9f 3e3f
00000050: 0639 98be 559b 9e3e 6e54 4abf 26ef 06bf
00000060: 127a 433f 0117 febe 920a 3cbf 79da a6be
00000070: 661a 3abf ffe3 183e 0512 683f b483 b23c
00000080: 2976 2e3e d275 1bbe b14c eb3e ce8f 9c3d
00000090: 896f 213c c81b 533f dc9f d3be dbef 6dbf
000000a0: 3f6d 18bf ae0f 393e 1268 19bf 68b5 d83e
000000b0: 173f 7c3e bb4c 00bf e0fe 28bf fa14 fd3e
000000c0: dc78 17bf a3e9 08bf 8961 c3be cb61 f13e
000000d0: b386 2fbd d5f7 2ebf a5e2 0d3f b47a 3cbf
000000e0: 3666 1b3e 2554 9dbe 42e5 44bf e20e 5b3f
000000f0: 06c6 9bbe ff56 dc3e d020 353e b089 2a3f
00000100: 1e8b b53d b507 613f 70bf b93e 6f67 283f
00000110: df8f 36bf 634a 9f3e 35c0 753f 269d bf3e
00000120: c32b 48be f8b4 1ebf 1a2b 98be 2cab 34be
00000130: 5597 2f3d 4f59 1fbf ff1b 15bf dc3e 88bd
00000140: 5d31 42bf 08be 8ebe d8ab 70bf cea5 11bd
00000150: 8167 04be 8277 0a3c 26dd 513e 941d 3dbe
00000160: 3b50 373f 96a7 253f 42a3 293f fbde cc3e
00000170: 79eb 23bd b95c 4dbf c356 51bf 5622 19bf
00000180: df36 583f f594 d23e f99d 3dbf a84a 4f3f
00000190: 03e3 68bf c448 a73e 3c26 43bf 71a2 523e
000001a0: 068e 07bf f8a2 2bbf b38d 093c 972a 113f
000001b0: b5b9 3b3f b46b 14bf a780 28bf d958 413f
000001c0: 1f17 22bd fe7a 05be d153 0a3f b1b2 dabe
000001d0: 2451 fe3e 01c1 2b3f 5f73 a8be ecb3 18bf
000001e0: 9dbf 81bf b640 e03d 5c8c 94be 8a9f 043d
000001f0: c1dc 39bf f37d 6a3f b92a e43d 2c91 b63f
00000200: db50 c73c 687f a03d b714 31bd 187b 133d
00000210: 580f e6bd 8031 c13c d2e7 88bd 3990 143e
00000220: a47d 52be fe32 113e 7f5f 933d 42ff 70bd
00000230: db76 a73d db95 0c3d 3d70 cabd 7b25 28be
00000240: 73c5 873d 6102 4abe c050 0d3e 21f0 7abc
00000250: eb74 2e3d c3b0 9dbd 4aa0 433e 0b5f 0ebc
00000260: d756 ebbc e310 4a3d 4b72 c33d 8bbd c93c
00000270: 2f5b 183e 5846 023e 82eb 24be d8bd 9fbd
00000280: 068e d8bd f082 c73b 1268 ebbd 94c7 bc3b
00000290: 26d0 eebd d601 14be 01cd 41bd e4db bebc
000002a0: 6c47 163e 0f3b 55be 5b9d 353c 7ab4 94bd
000002b0: ad44 e5bc 9c7d 003d 0db5 d53c d3c5 aabe
000002c0: 7823 cc3d 9345 023d a2bc 383d 6fa2 1bbd
000002d0: 5991 503d 670f c0bc 67f6 ccbd a2c7 5e3e
000002e0: bf09 3c3d 8c82 79bd 4148 463e 324d d1bd
000002f0: 6b4e 533d 0b1e 5f3d bb89 18bd f205 dbbd
00000300: cc10 1b3d 0523 bebd 47f2 10be 6f9e f0bd
00000310: 6c52 083e 689a 90bd b3d6 34be cd07 853d
00000320: e007 32bd 05a4 5b3e 20ee edbd a403 d23c
00000330: 6da8 0b3e 358c fc3c 5e63 903c 21c9 df3d
00000340: 76dc b13d 1a39 b93d af4c 1a3b 1cb5 133b
00000350: cbbc 19bd ff0e 6cbd 13ce 15be 38a6 bf3c
00000360: 53d9 8bbd 0e57 34bd d7f1 19be cfe1 313d
00000370: c2e5 96bc 7b56 fe3c 86a7 25bc 7e1c 3a3d
00000380: 5fd9 a2bd 75dc fdbd 61ef 173e d0ec 02be
00000390: 3b28 0c3d 6296 fbbb 4cc5 9c3d 8903 cb3d
000003a0: 447f 543d 3141 f73d 1c7e ce3c afe1 f9bd
000003b0: 8307 ed3b 5994 d83c ef38 0f3e a2b6 04be
000003c0: aa33 75bd b281 e33c 1eef 9abc 9b0c 903e
000003d0: a72f 0bbe 5004 1dbe d374 163e 3eb2 dd3d
000003e0: 4d9a 6c3e b437 bcbd daf8 2b3e 379e 743d
000003f0: 3fbc 813e c959 6dbd ad4b c93c d16a 63be
-0.5280374 -0.20452277 0.41815478 -0.6893797 -0.041255 -0.743338 -0.17983744 -0.70089936
0.981038 -0.808633 -0.83100855 0.769096 -0.09359474 0.3316485 0.80395555 0.7902829
0.4866772 0.17716345 -0.92105633 0.74462396 -0.29731005 0.30977884 -0.7903508 -0.5270866
0.7635814 -0.49626926 -0.7345363 -0.32588556 -0.7269653 0.14930724 0.90652496 0.021791317
0.17037262 -0.15181664 0.45956948 0.07644616 0.009853252 0.82464266 -0.413329 -0.92944115
-0.59541696 0.18072388 -0.59924424 0.42325902 0.24633442 -0.5011708 -0.6601391 0.49430066
-0.5916879 -0.534815 -0.3816035 0.47144923 -0.04285307 -0.6834691 0.5542396 -0.7362473
0.15175709 -0.3072826 -0.7691232 0.85569584 -0.30424517 0.43035123 0.17688298 0.66616344
0.08864425 0.87902385 0.36278868 0.6578283 -0.7131328 0.3111144 0.9599641 0.37424582
-0.19547944 -0.61994886 -0.29720384 -0.17643422 0.04286893 -0.6224565 -0.58245844 -0.066526145
-0.7585657 -0.27879357 -0.9401221 -0.035558514 -0.12930109 0.008451344 0.20494518 -0.18468314
0.71606797 0.6470884 0.66264737 0.4001387 -0.040019486 -0.8021961 -0.8177301 -0.5981802
0.84458727 0.4112927 -0.7406917 0.8097329 -0.9097139 0.32672703 -0.76230216 0.20569779
-0.52951086 -0.67045546 0.0083956 0.5670561 0.7333024 -0.5797684 -0.6582131 0.75526196
-0.03957283 -0.13035199 0.54034144 -0.42714456 0.4967128 0.67091376 -0.3290052 -0.5964954
-1.0136601 0.10949843 -0.29013336 0.03237871 -0.7260247 0.91598433 0.11140961 1.4263053
0.024330547 0.07836801 -0.043232646 0.036006063 -0.11233395 0.023583174 -0.06684841 0.14508142
-0.2055574 0.14179608 0.07195949 -0.058837183 0.08176967 0.0343226 -0.09884689 -0.16420548
0.06629457 -0.1972747 0.13800335 -0.01531604 0.04259197 -0.0769973 0.19104114 -0.008689652
-0.028727932 0.04933251 0.09543284 0.024626514 0.14878534 0.12722147 -0.16105464 -0.07799882
-0.10573964 0.006088607 -0.11494459 0.0057610963 -0.11660795 -0.14453825 -0.047314648 -0.023298211
0.14675683 -0.2082331 0.01108488 -0.07260986 -0.027986849 0.03136979 0.026087308 -0.33354053
0.099677026 0.031804632 0.04510177 -0.037996706 0.050919864 -0.023444844 -0.10007935 0.21755841
0.045907732 -0.060915515 0.193635 -0.10219802 0.051588457 0.05447201 -0.037240725 -0.10694493
0.037857816 -0.09284023 -0.14154921 -0.11748969 0.13312691 -0.07060701 -0.17660026 0.064956285
-0.04346454 0.21449287 -0.11617684 0.025636502 0.13638468 0.030828575 0.017625507 0.10927034
0.08684628 0.090440944 0.0023544242 0.002253837 -0.037533563 -0.05763149 -0.14629392 0.023394689
-0.06828561 -0.044028334 -0.15033661 0.04342824 -0.018420104 0.031047096 -0.0101107415 0.04543733
-0.079516165 -0.123955645 0.1483741 -0.1278565 0.034218054 -0.007677839 0.07654819 0.09912784
0.051879182 0.12072981 0.025206618 -0.12201249 0.0072335615 0.026437925 0.13986562 -0.12960294
-0.059863724 0.027771804 -0.018912848 0.28134617 -0.13592397 -0.15333676 0.14693002 0.108250126
0.23105736 -0.09190312 0.16794148 0.059721198 0.25338933 -0.057946954 0.024572218 -0.22208716

gru.weight_hh_l1 f4 [384, 128]
00000000: e82f 58bf e2de 17be 8837 103e ada9 6e3e
00000010: 4acd d6be b2dd e3bd 32cd 8bbe 89da 28be
00000020: c9bf 303d 788e 503d 1344 f63d 9223 d2be
00000030: 42c9 1abd e668 463d c685 85be cc75 ff3d
00000040: 4ad3 cf3d 4f3b 8abd 71f8 893e cacc 78bd
00000050: 2eb5 eb3e cd25 80bc e579 f73d 9580 e33c
00000060: 4774 133f e027 49bd 4743 133f ee26 f73d
00000070: 9799 033e a2d2 5bbe fdcc a4bd c568 46bf
00000080: 6a83 893b 2dea a2bc 1ae2 13bd 8065 533d
00000090: cbc0 873e c6e4 0dbd 0bb7 a43e d887 8b3b
000000a0: 74a3 8cbe dc8f efbd 432c 44bd e56b 833e
000000b0: dc88 403e c519 30be b2b1 f9bb 2f81 023e
000000c0: e6f9 38be d858 0ebe 06d4 9a3d b098 343e
000000d0: da61 533d 62bb 80be a043 50be 32f2 113d
000000e0: d280 fdbc 709f 5f3d b92d bf3d b869 3dbe
000000f0: 2aea 3bbe da54 9fbb b6fe 96ba 5d76 a3bc
00000100: bfe0 e73d da7b 91bd b987 fdbe b964 03be
00000110: 287b 003e db58 9dbc 75e1 153d 90a1 0bbd
00000120: f346 b7bd 77ef 173e 11f6 40be 18b5 513f
00000130: 81c3 d3bc 503d 933d 1fe2 cabc 0a75 1ebf
00000140: c747 99bd ef1f 353e b726 65be 01c5 a93c
00000150: bf32 3cbe 9f8a 73be 5f16 133d 5cae d73d
00000160: 463b e73c d045 77bc d6b8 2bbe 751b ca3e
00000170: 4b9d 2a3e 3c2a c7be d42c 17be cc1d c2bb
00000180: 3025 4fbe 41ea ec3e 8d7d 853e 3d06 e4bc
00000190: ade0 713d d5ee 30be bd03 f03e 0506 883c
000001a0: e481 1ebe fd74 123f 101f 4d3e 92b3 453e
000001b0: b75b 3f3d 5b96 e63e eccc 093e 935a 8d3d
000001c0: f72d b73d 73b0 11be 7ce5 263d e5e3 ebbe
000001d0: dec9 a0bd 2ec1 f5be 7b96 803c 035e 043c
000001e0: 25d3 45bc 7196 86bd de0b cebd 8871 56be
000001f0: 1976 63be 9f0f 013e 153d 09be ab20 de3d
00000200: e3c0 a4bc 22c9 c43d 9794 ca3d ccd0 073d
00000210: c6b1 debd 6a5d 30be e636 a4bd e023 bcbc
00000220: 42e6 88bd b78e e13d 61eb f73c 1b97 29be
00000230: 86fa dfbd 74ea 1c3e f8d1 c43d 5718 c4bd
00000240: f82e 023e e374 ef3d 658b 553d 1c28 683d
00000250: 552f 4f3e 71af 02be 4b32 62bd da07 513d
00000260: 676d aa3d d440 1bbd 5d4b 273e 2547 da3b
00000270: 3941 b73d 7450 12bd a383 e8bc ea07 1b3d
00000280: e829 5a3d 4b06 02be 0369 453d e4c6 063e
00000290: 7b08 633c 5620 033e efba 20bd 81bb 303e
000002a0: a874 87bd ba50 2bbe 3bc7 26be 92bc eabd
000002b0: e27f 46be f076 d6bd ba8f 4abd ede3 573e
000002c0: 5437 d5bc 1864 16be 529e 24bd e47d 753d
000002d0: 601e bd3c e945 7bbd 008d a5bd 428b 873d
000002e0: e37a 073e dfc9 ec3d f94d 1c3e 5840 60bc
000002f0: e595 34be f653 08be 17e2 823d 2e51 163e
00000300: afd6 3dbe 5c1e 05be 5d7e 163e da9d b4bd
00000310: 2f2e a73d c9b2 fd3d 97f1 6c3e 0fd4 77bd
00000320: 18c4 ddbd ff80 463d c7de f9bd b238 c63c
00000330: 24fd f8bd 2a05 08be 2cff 41bd 9617 463d
00000340: 7713 7ebd 4105 353d 8b95 8a3c 38a3 0c3e
00000350: 4b56 27be 74a5 193d 5a9f 323d 8e1e 153e
00000360: eb48 a2bd b421 6cbd e188 2bbe ba05 60be
00000370: e449 d83c 859f 12be 1a03 b1bd f10d 873d
00000380: 7df7 e9bd 0da5 0cbe 6d90 9fbd a9e1 7ebd
00000390: c58e 1fbe fc87 c33d fc50 9e3c a490 553e
000003a0: 8501 083e fb8a e13d 6367 773d 3c33 27be
000003b0: 8811 a83c 27e7 37be fba0 c93d 5cf2 023e
000003c0: 36b6 e1bd ca7b ce3d d279 693d 316e af3d
000003d0: df46 f7bd ff7e ddbc 6214 01be ca95 21be
000003e0: 420a 8dbd d121 0b3b 75bf 9abd 5858 2dbe
000003f0: d917 54bd c1e2 043d eda6 01bd 9417 953d
-0.844481 -0.14831117 0.14083683 0.23306914 -0.41953498 -0.111262694 -0.2730499 -0.16489615
0.04315165 0.05091712 0.12024703 -0.41042763 -0.03778959 0.048439883 -0.26078624 0.1247364
0.10147722 -0.067495935 0.26947358 -0.060742177 0.46036667 -0.015643025 0.120837964 0.027771274
0.575993 -0.049110293 0.5752453 0.12067972 0.12851559 -0.21467069 -0.08046911 -0.77503616
0.004196574 -0.019887054 -0.0361043 0.05161047 0.26514277 -0.034642003 0.321709 0.004258137
-0.27468455 -0.11697361 -0.047893774 0.25668254 0.18802208 -0.1719733 -0.00762006 0.12744592
-0.18064079 -0.13901079 0.075599715 0.1763637 0.05160699 -0.25142962 -0.20338297 0.035631366
-0.030945215 0.05459541 0.09334893 -0.1849736 -0.18351045 -0.00486241 -0.0011520002 -0.019953901
0.11322164 -0.07103701 -0.4951761 -0.12831391 0.1254698 -0.019207409 0.036591966 -0.034089625
-0.08949079 0.14837442 -0.18843867 0.8191695 -0.02585006 0.07189429 -0.024766026 -0.6189734
-0.074843936 0.17687963 -0.2237805 0.020723822 -0.18378733 -0.23783349 0.035910007 0.10531303
0.028226506 -0.015092328 -0.16769728 0.39474073 0.16661565 -0.3889941 -0.14763194 -0.005923962
-0.2022903 0.46272472 0.2607235 -0.027835006 0.05905216 -0.17278607 0.46877852 0.016604433
-0.15479237 0.5720976 0.2003138 0.19306782 0.046718325 0.45036587 0.13457078 0.06902041
0.08944314 -0.14227466 0.040746197 -0.46072307 -0.07851003 -0.47998947 0.015696755 0.008079055
-0.012074267 -0.06571663 -0.10060857 -0.20941746 -0.2221302 0.12603615 -0.13402207 0.10846075
-0.020111507 0.096086755 0.098916225 0.03315811 -0.10873751 -0.17223135 -0.080182835 -0.022966325
-0.06684543 0.11013549 0.030263605 -0.16561548 -0.109364554 0.15323812 0.09610361 -0.09574955
0.1271323 0.11692216 0.05213489 0.056678876 0.202329 -0.12762238 -0.055223744 0.05103288
0.08321648 -0.03790362 0.16337343 0.006661313 0.08947987 -0.035721257 -0.028383082 0.037849344
0.05326262 -0.12697713 0.04819585 0.13161808 0.013857002 0.12805304 -0.039240774 0.17259027
-0.06614047 -0.16730013 -0.16286938 -0.11461748 -0.19384721 -0.10471904 -0.049453475 0.2108304
-0.026027359 -0.1468662 -0.04019005 0.05993451 0.023085773 -0.06134597 -0.08083534 0.06618358
0.13230471 0.11561941 0.15264119 -0.013687216 -0.17635305 -0.13313279 0.063907795 0.14679405
-0.18538927 -0.12999862 0.14696641 -0.0881917 0.08163106 0.12387616 0.23139034 -0.06050497
-0.108284175 0.048462864 -0.122006945 0.024196956 -0.12157658 -0.1328322 -0.04736249 0.048362337
-0.062030282 0.044194464 0.01691701 0.13734138 -0.16341512 0.037511304 0.043609 0.14562437
-0.07924064 -0.05764933 -0.16751434 -0.21877185 0.026402421 -0.14318664 -0.0864317 0.06594456
-0.11424158 -0.13734837 -0.07791219 -0.062226925 -0.15581806 0.09547421 0.019325726 0.20855957
0.1328183 0.110128365 0.06040133 -0.16328138 0.020516172 -0.17959271 0.09845158 0.12787765
-0.11021082 0.10082205 0.057000943 0.08565939 -0.120740645 -0.027038096 -0.12605432 -0.15779796
-0.06886722 0.0021229873 -0.07556049 -0.16928232 -0.051780555 0.032442812 -0.031653333 0.07279888

gru.bias_ih_l1 f4 [384]
00000000: 1aec 69be f3e1 973c 3574 483d 8d5f b13d
00000010: 7efd 23bc a3eb 45bd dda2 b1bc c3d7 dfbd
00000020: 17fe 82bd ccde cabd 6acf 693d a260 d7bd
00000030: c0d5 4ebe 6158 143e 7fd9 2dbe bb0e 1abc
00000040: 3bf7 bdbc 78da 8fbe 0382 19be 556a 0dbe
00000050: efc6 1dbe 6ae5 893d 64a7 2f3b 1535 44bd
00000060: 19df 1fbe 8c03 b93b edce e8bd 9156 9b3c
00000070: 14eb 1cbe b8f3 ed3a a9e0 843d ffc5 19be
00000080: 149e 09be 670b 833d e564 fcbd 4d62 14be
00000090: c25b e7bc eae6 1b3e 188b 2fbe faa6 1c3e
000000a0: 3af5 8ebd 20c9 8fbd 223e 033c f087 2abe
000000b0: 4c4c aebd ef01 4dbe 38fe a8bd bc89 c9bd
000000c0: 66be 69bd 3f96 91bd d1f5 3ebe 58d4 7c3d
000000d0: a8bb 063d a04e e9bd 6a10 51bd f05e ac3c
000000e0: f277 42be eaf6 ff3d 1719 1fbd 4812 f8bc
000000f0: 24de 0f3d 4c14 53be 79aa f2bd 2a36 f33d
00000100: ddd2 01be bb08 0abd 8470 36be 75d6 81bd
00000110: a5b3 1abd 410c 04bd 51d8 953d 8fb5 c7bb
00000120: 453c cb3c ae5b e7bd 18e3 b0bd 75c9 19be
00000130: 10e3 51bd 15ff 3bbe c650 7a3c 7dc2 063e
00000140: 69ff c93d ca8f a6bd 802b b3bc 39af 86bd
00000150: d675 873b 35df bfbc 1bb5 433c a9f8 a9bd
00000160: 45cf 8abd 67e1 e93d ba16 0abe be42 f9bd
00000170: 6028 82bd b465 a4bd b087 783c 35b2 c43d
00000180: 7701 af3d a80d 2dbd 526c 31ba 0e0c 03bd
00000190: 8afa 92bc 46df e43c d061 84bd 31d2 04be
000001a0: 9973 e5bc 5cd5 92be f3d8 70bd d24f aebc
000001b0: cd11 b2bd 4f7b e73c 179e 4e3d e15e d3bd
000001c0: cb5b 05bd 5cde 79be 33a6 0e3e 951d 8aba
000001d0: 6cc4 47be e213 9bbc c24e 423d b9d1 b0bc
000001e0: 0a23 d5bd f71e b0bd 036f 343d 3df2 cb3a
000001f0: f97c 0cbd 1d91 d8bc db3a 983d 347e 89bd
00000200: 3f1d 623d d71f 803e 3851 573e 026c 863d
00000210: 73b6 fdbb 973f a63d 5b36 9a3d 64a9 f13d
00000220: 04a0 11bc 7d06 a6bd ca14 4a3d 2373 1abe
00000230: 6de2 e2bb d8b0 3c3d ea5b c93d 70d5 21be
00000240: 9c68 093e 7a94 1bbe 42eb 553c 8977 c23c
00000250: 1cdd edbd 74a6 29bd 4e9d f0bd 9e94 c73d
00000260: 72ca 433d 036e 8fbd 1933 293e f476 833d
00000270: 0818 b1bd 2624 5abc 0f29 60bd 16f1 6a3d
00000280: 23d1 41bd a3c6 b03d ff7e cd3c e25c 7e3c
00000290: ca8f 153e 47b6 b73c 9579 1fbd 4a9d 0bbd
000002a0: 06ea 95bc adb5 893d 0b82 04bd 934c fa3d
000002b0: 5364 d8bd 118d df3d 64ed cb3d d07c babd
000002c0: ae26 7b3d d75f 18bd 669c 33bd ae76 0b3d
000002d0: 4a95 183d 8a20 47bd 573f 7abe bcc6 4e3d
000002e0: e577 26bd 8f21 f6bd 8a1d 0d3d 90db 1abe
000002f0: 70b1 913d b4a1 fc3d 1df6 753d d995 843d
00000300: 5cb0 b6bc f798 a6bc e424 61bd 6a42 0a3d
00000310: 75af 463d b9c5 213c a859 ca3d 2bd3 b33d
00000320: 09ba eebc 9a2b acbb 751b 213e b79c 1f3c
00000330: f625 1b3e 032a b23c 2b0b 993d 6fce a33d
00000340: ee0d 503e 15d3 d6bd 0fbb 4abc 7fdb 1fbc
00000350: d18e 5e3e 4bb4 44bd 0da0 b23d 3240 14be
00000360: aff3 6bbe 29fe 43be aa37 80bd 210c e7bd
00000370: 1fc1 1b3d 9b5c 43be 2fc9 373d 591b 853d
00000380: 45dc a8bc b4a5 1abe cac9 3fbc 1a11 a93c
00000390: e045 69be e3a6 b6bd a743 c23d d51a 893d
000003a0: ea1d 5dbc 6059 24bd 09a8 1abe 4304 dcbd
000003b0: 0f65 b63b b9f7 b3bd 029d 093e 0861 12be
000003c0: 4a60 e13d e96b e93d 477f 0d3d fdfe 40be
000003d0: 051a 163e 4261 01bd c3c9 9fbd 745b b13d
000003e0: e834 82bc f67f c7bc cf70 3c3e a347 a43d
000003f0: fa78 173e de04 7e3c 08e0 9a3d 3260 c2bc
-0.22843972 0.018540358 0.04893895 0.08660803 -0.010009168 -0.048320424 -0.021684105 -0.10929825
-0.0639612 -0.099057764 0.05708257 -0.10516478 -0.20198727 0.14486839 -0.169775 -0.009402926
-0.023189178 -0.28096366 -0.14991002 -0.13810094 -0.15407918 0.067332104 0.0026802653 -0.047902185
-0.15612449 0.005646175 -0.11367593 0.018962177 -0.1532405 0.0018154299 0.06488163 -0.15016936
-0.13439208 0.06398659 -0.123239316 -0.14490624 -0.028241996 0.15224805 -0.17142904 0.15298072
-0.06980367 -0.070207834 0.008010419 -0.16653419 -0.08510646 -0.20020269 -0.082516134 -0.09840724
-0.057066344 -0.07108735 -0.18648459 0.061725944 0.032893807 -0.1139195 -0.051041044 0.021041363
-0.18991068 0.12498267 -0.038842287 -0.030282155 0.03512396 -0.20613211 -0.11848921 0.11875565
-0.12678094 -0.033699732 -0.17816359 -0.063397326 -0.03776898 -0.03223825 0.0731665 -0.0060946415
0.024809012 -0.112967834 -0.08637065 -0.15018256 -0.051241934 -0.18359025 0.015278047 0.13160129
0.09863169 -0.08132894 -0.021871328 -0.0657639 0.00413392 -0.023421863 0.011945034 -0.08299381
-0.06777815 0.11419945 -0.13485232 -0.12170933 -0.06355357 -0.08027211 0.015169069 0.09604303
0.08545201 -0.04224935 -0.0006768155 -0.031993918 -0.017941732 0.027938496 -0.06463969 -0.12970807
-0.028009223 -0.28678405 -0.05880065 -0.021278296 -0.086948015 0.02825704 0.050443735 -0.10320831
-0.032558244 -0.2440123 0.13930587 -0.0010537381 -0.19508523 -0.01893038 0.04743839 -0.021584379
-0.10407074 -0.08599656 0.04405118 0.0015559864 -0.03429887 -0.026436383 0.07433101 -0.067135245
0.055203672 0.25024292 0.21027076 0.065635696 -0.007742697 0.081175976 0.07529899 0.11799887
-0.008888248 -0.08106706 0.049336232 -0.15082984 -0.0069239647 0.04606709 0.09831984 -0.15804076
0.13418812 -0.15193358 0.013056578 0.02373864 -0.11614439 -0.041418508 -0.117487535 0.09745143
0.04780049 -0.07003405 0.16523398 0.06419173 -0.08647162 -0.0133142825 -0.054726657 0.057358824
-0.04731859 0.08631637 0.02508497 0.015525075 0.14605632 0.022425784 -0.03893431 -0.03408555
-0.018300068 0.06724105 -0.03235058 0.122216366 -0.1056601 0.10915578 0.09957388 -0.09105837
0.061316185 -0.037200775 -0.043850325 0.03404873 0.03725175 -0.048615016 -0.24438225 0.050482497
-0.040641684 -0.120181195 0.034452 -0.15122819 0.07113922 0.1233553 0.060049165 0.06473894
-0.022300892 -0.020336611 -0.054966822 0.033754744 0.048507173 0.009873801 0.09880382 0.087805115
-0.029141443 -0.005254221 0.1573313 0.009741954 0.151512 0.021748548 0.07472833 0.079983585
0.20317814 -0.104894795 -0.0123737 -0.009756922 0.21734168 -0.048023503 0.087219335 -0.14477614
-0.23042177 -0.19139923 -0.06260617 -0.1128161 0.03802597 -0.19078295 0.044869598 0.06499357
-0.020612845 -0.15102273 -0.011705825 0.020638037 -0.22780561 -0.0891855 0.0948556 0.06694571
-0.013495902 -0.040124297 -0.15103163 -0.10743 0.0055662463 -0.08787484 0.134388 -0.14294827
0.11004694 0.11397535 0.03454521 -0.1884727 0.14658363 -0.031586893 -0.07802155 0.086600214
-0.015894368 -0.024353009 0.18402408 0.08021476 0.14792243 0.01550409 0.07562262 -0.02372751

gru.bias_hh_l1 f4 [384]
00000000: 19c0 06be 5d46 dabc 73b8 e93c be54 013e
00000010: ae25 d3bb 08fc 143c a8e9 a4bd 395a 55bc
00000020: 362a 9bbc 9933 23bd f91e 1a3e 8c62 21bd
00000030: 4197 0cbe f86f 4d3e 8b58 3dbe 3ce1 8cbd
00000040: fb53 57bd 4341 78be 54b8 b1bd 6763 41bd
00000050: 7bba 0bbe 3b56 7fbd ba75 843c 873a 92bd
00000060: 506d 8abe 430f 7cbd c8e0 24be 089f 06bd
00000070: 2eb7 25be 0afe d4bc 22d9 ddba 7101 febd
00000080: ed91 11be 6a2f 623d 156e 34bc 1858 76bd
00000090: f287 b3bd eed1 3dbc 5f4d e7bd a431 473e
000000a0: 30d2 e1bd 7387 d7bc 4f32 9fbd 7bc6 0ebe
000000b0: 77bc 99bd 2228 bdbd d955 c6bd 427f a93c
000000c0: c293 0bbe e179 4b3d 82c8 65be 7e8c 883d
000000d0: 4ef7 653a 74ba 46be 4ecd 84bd 3ea9 e8bc
000000e0: a7ec 77be 6a42 0a3e 3f2e f33c c8ad 57bb
000000f0: cd79 073d 63da e9bd 1978 9ebc 74be 313d
00000100: 0880 97bd b6a7 c6bc 9fb8 3cbe c06f e03a
00000110: 65b8 fa3b 0189 6e3b 9bfc 123d f9d5 8ebc
00000120: 5818 c6bc 9e32 14be 1874 31be 5cc7 23be
00000130: aabd bdbd a0e1 c4bd e7d2 c23d 9838 e93c
00000140: 1b9b 72bd e14e 9ebd ea8b 1abd b580 073b
00000150: 5db3 2ebc 4e0f 15be 6fb7 39bd c2b9 c2bd
00000160: 94e5 043d 8fe9 26bc efb0 5dbd d557 3937
00000170: fba8 bcbd a262 8ebd 4c02 02bd 854e ddbc
00000180: b03c 0fbc 84e5 04be 65ec e9bd f4f1 783d
00000190: a49e edbd 4496 10bc ae64 8f3c 724e e8bd
000001a0: 9d51 3b3d 8b3d 2abe 47bd 45be ccbb 00be
000001b0: 516f eebd c883 84bd 6b2b 36bd 4a7e 123d
000001c0: 62db f03b bf52 60be 637b 4b3e 56b4 bc3d
000001d0: 5993 15be f386 12be d660 6d3d c965 263d
000001e0: 5279 1dbd 5b36 293d 3d88 e2bc 2831 afbc
000001f0: bb90 94bc 08db c1bc 0418 8f3d cb90 38bd
00000200: bc23 0d3e d13e 633e 9dd3 b93d c668 af3d
00000210: 6e73 6cbc 5613 413d 93f3 2b3a 10e0 d43d
00000220: 195f 19bd 8432 f1bd 6f4d 133e dc5d 56be
00000230: 3190 72bc 2082 5c3d 8db3 2d3e f47e 113b
00000240: 6f8b ee3d 2555 44bc 2df0 03be d382 9e3c
00000250: ea5e 52be bf84 17bd 6e93 19bd eb3b d73d
00000260: 90cc 253d 5ddb 06be 34d6 7b3d 08f8 6abd
00000270: e9f5 9bbd 7662 773c 0cd6 6fbd 0fff b63d
00000280: 8131 89bd 4219 5f3d 8954 8a3c b3fc a83c
00000290: 2382 5e3d 0594 513d 9079 84bd 5cde debd
000002a0: 12bd 073e ef2c d53d bd47 1c3d a23e ec3d
000002b0: 432f c33c 689d c9bc fc16 a73d 2a58 d1bc
000002c0: 8358 773d 1c99 79bc 424f b43d 221b 0c3d
000002d0: c072 af3d 2ef9 a3bc 5f48 7fbe 3326 293e
000002e0: 1bdc 033c 7d3c b3bd 8ef7 043e 1c94 85be
000002f0: ca2b e23c d421 b9bb 7d06 8c3d 87d7 90bd
00000300: 14d7 453d 85c7 8f3a f93a 34bd 3913 263c
00000310: 8b70 c23d 289d a33d f860 b43d fdc1 a6bc
00000320: 35ec 9bbd abb9 293d 45bb 133e 6261 173d
00000330: cd33 303e 6693 04bd 9c1e 833d 90cc 6e3b
00000340: 168e 263e daab edbd c2ff fabd e9d1 053d
00000350: b88e 213e 1012 1dbd f856 82bc 5708 dcbd
00000360: 8c12 91bd 6dd8 26be 6c7d 02be d4d8 01bd
00000370: 4398 4c3d 70ad 52be 58b6 123d 1d3a 953c
00000380: 194d a53d 3e13 3cbd d415 bbbb 4e7f 89bd
00000390: e152 33be c139 8dbd c184 053d 0071 583d
000003a0: 537f 833d 0583 90bd 22c4 b9bd 24a3 cbbd
000003b0: 1fed 953c 5043 493d dca2 483d bdfa 40be
000003c0: 7b54 a83d 0eab 703d 416a 013e 2873 9cbd
000003d0: 8241 a63d 8f31 bb3c 287b debd 69d7 9c3d
000003e0: f313 893d cdf6 02be dbfb 0b3e 04db 973c
000003f0: 1e18 cd3d 97a8 003e c939 1a3e ded8 a83d
-0.13159217 -0.02664488 0.028530335 0.12629983 -0.0064437008 0.009093292 -0.08052379 -0.013021999
-0.018941026 -0.03984413 0.15050878 -0.039400622 -0.13729574 0.20062244 -0.18490808 -0.068788975
-0.052570324 -0.24243645 -0.08677736 -0.047213938 -0.13645355 -0.062338095 0.016169418 -0.071400695
-0.27036524 -0.061537992 -0.16101372 -0.032866508 -0.16183159 -0.026000042 -0.0016925673 -0.12402619
-0.14215823 0.055221 -0.011012574 -0.060142606 -0.08766164 -0.011585696 -0.11294054 0.1945253
-0.11026418 -0.026309704 -0.077732675 -0.13942902 -0.0750665 -0.0923617 -0.09684343 0.020690564
-0.13630584 0.04967678 -0.22439769 0.06667422 0.0008772508 -0.19407064 -0.06484471 -0.028401013
-0.2421137 0.13501897 0.029685138 -0.0032909978 0.033075143 -0.11418607 -0.019344376 0.04339452
-0.07397467 -0.024249893 -0.18429802 0.0017123148 0.007651376 0.0036397579 0.035885435 -0.017436014
-0.02418153 -0.14472434 -0.17329443 -0.15994018 -0.09264691 -0.09613347 0.09512883 0.028469369
-0.05922995 -0.07729889 -0.03773109 0.002067608 -0.010662881 -0.1455662 -0.04534095 -0.09508087
0.032445505 -0.010187521 -0.054123815 1.1047309e-05 -0.09211918 -0.069524065 -0.03174047 -0.02701498
-0.008742496 -0.12978178 -0.11422042 0.06077762 -0.11602524 -0.008824889 0.017504063 -0.11343087
0.04573213 -0.1662504 -0.19310485 -0.12571639 -0.11642326 -0.06470448 -0.044475 0.03576497
0.007350371 -0.21906565 0.19871287 0.09214084 -0.1460699 -0.14309292 0.057953678 0.040624414
-0.03844578 0.041311603 -0.027652854 -0.021385744 -0.01813542 -0.023664013 0.069870025 -0.04505996
0.13783163 0.22191931 0.09073565 0.08564906 -0.014431817 0.04713758 0.0006559428 0.10394299
-0.037444208 -0.11777213 0.14385007 -0.20934242 -0.014804886 0.053835034 0.16963024 0.0022200914
0.116476886 -0.011983191 -0.12884589 0.019349491 -0.2054402 -0.03699183 -0.037494116 0.10509475
0.04047829 -0.13169618 0.061483577 -0.057365447 -0.07615263 0.0150991585 -0.05855374 0.08935367
-0.06698895 0.054467447 0.016886013 0.020628309 0.054323327 0.051166553 -0.06468499 -0.108822554
0.13255718 0.10408961 0.038154352 0.11535384 0.023826247 -0.02461119 0.08158681 -0.025554735
0.060387146 -0.015234258 0.0880418 0.034205563 0.08566809 -0.02001628 -0.24929951 0.16518478
0.008048083 -0.087517716 0.1298506 -0.2608956 0.02760877 -0.0056497846 0.06837175 -0.070723586
0.048300818 0.0010969496 -0.044001553 0.010136419 0.09494122 0.079889596 0.08807558 -0.020356173
-0.07613412 0.041436832 0.14426906 0.036958106 0.1720726 -0.032367133 0.06402323 0.0036437847
0.16265139 -0.11605044 -0.12255813 0.03267089 0.15777099 -0.038347304 -0.01591061 -0.10743778
-0.07083616 -0.16293497 -0.12743157 -0.031700924 0.049949896 -0.20573974 0.035818428 0.018216187
0.08071346 -0.04591679 -0.005709389 -0.067137346 -0.17512085 -0.06895781 0.032597307 0.05284214
0.064207695 -0.0705624 -0.090706125 -0.09943226 0.018301545 0.04913646 0.04898344 -0.18845649
0.08219238 0.05875688 0.12638189 -0.07639152 0.081179634 0.02285078 -0.10863334 0.07658274
0.06693258 -0.1278946 0.13670294 0.018537052 0.100143656 0.12564312 0.15061106 0.08244489
