gru_chaotic_model.pth (torch, 601860 bytes, 9 tensors)

gru.weight_ih_l0 f4 [384, 1]
0.04040433 0.09641578 -0.16129729 -0.23291409 -0.13933097 -0.015741374 0.06844417 -0.110888
-0.04317436 -0.09959007 -0.003811599 0.019262306 0.090078235 -0.2682291 -0.19876873 0.041446462
0.0029845773 0.06396574 -0.282054 0.074172586 -0.08355428 0.017372549 -0.21697772 0.10607955
0.1268121 -0.116272435 0.103466235 -0.23125094 0.07797177 -0.1549582 0.2703453 -0.07545215
-0.113712296 -0.10245132 -0.21700512 -0.08770292 -0.07695271 -0.21223316 -0.07915105 -0.36044988
0.05656832 -0.043587163 0.003560293 0.022399701 -0.07330824 -0.2813804 -0.09794023 -0.13436714
-0.098591045 0.029538084 -0.19013076 -0.0030225872 -0.18676975 -0.20133999 -0.053218503 -0.07809311
-0.039055206 -0.18992667 0.0016528687 0.037430786 -0.017930984 -0.22940597 -0.04018478 -0.040235225
-0.0062358584 0.19542637 0.1054289 0.06762198 -0.17219554 -0.2646609 0.0044170404 -0.08295258
-0.05249677 -0.07961198 0.061270438 -0.18889612 -0.18323009 0.035675324 -0.20098741 -0.23673041
-0.07595203 -0.19355598 0.13130182 0.06937555 0.06412256 -0.24499477 -0.042701937 -0.03894884
-0.17576656 -0.22704832 -0.06632893 -0.13463815 0.011715975 -0.18571433 -0.0071266675 -0.16587713
-0.18525235 0.045566298 -0.17827016 -0.115560345 0.034761317 -0.19663142 0.091865174 0.047168504
0.11217069 -0.14193754 0.025132474 0.049032256 0.02559762 -0.23088391 -0.026661865 -0.08676198
-0.03349264 -0.24881707 -0.24838282 -0.049180087 -0.101211555 -0.0688069 -0.034017533 0.032838453
0.118119694 -0.11954738 -0.23818001 -0.20380148 -0.10254251 -0.055145573 -0.05614607 -0.1731145
-0.13739328 -0.15576059 0.024092719 0.0615843 0.13941397 0.28649288 0.103845045 -0.04223087
0.23481517 0.028591549 -0.020921497 -0.16053 0.2782923 0.10578885 0.024395892 -0.05013124
0.10883313 0.06503836 0.10537752 -0.03410989 -0.092607185 0.31643355 -0.10741708 -0.015000192
0.061425306 0.09830656 0.0003671974 0.18814458 0.022698496 -0.041017476 0.2166353 0.14162704
-0.037965875 0.0062169023 -0.027601292 -0.036354877 0.0012407172 -0.07123669 -0.068200655 -0.008542651
0.027484016 0.091360204 0.17124775 -0.015411878 0.037449535 -0.0032734424 0.02312684 -0.12472201
0.15652679 0.009358552 0.10727937 0.13529404 0.08300282 -0.040889416 -0.24228637 -0.004320018
-0.045516547 0.09087342 -0.054264672 0.0063403603 0.01771541 0.16200075 0.03473006 0.052198544
0.023955861 0.066955686 0.04239048 -0.13553764 0.11891072 0.16411799 -0.15726419 -0.04440015
0.11975861 0.015843976 -0.0003263842 0.09782327 0.025988622 -0.22428595 0.067419745 -0.030256506
0.013641943 -0.018540908 0.03847249 -0.057517074 -0.0068233637 -0.1537128 -0.08040528 -0.10124549
0.013252547 0.010544429 0.014528812 -0.025312202 -0.09210755 -0.073885486 -0.061522696 0.063119985
-0.091715954 0.095456265 -0.09415074 -0.117673166 0.104116455 0.050228044 -0.11699722 0.005585247
0.29715857 -0.08873169 -0.065447286 0.11492761 -0.15689665 -0.04873444 -0.07213238 -0.03963411
-0.113772124 -0.005012879 0.070302784 -0.0059112567 -0.045383085 -0.058580287 -0.054125547 0.011495871
0.054293565 0.0954916 -0.008867788 -0.09120937 -0.08026027 0.008272819 0.0019404977 0.10409993
00000000: 037f 253d a375 c53d 1e2b 25be 0881 6ebe
00000010: c7ac 0ebe 0ef4 80bc 752c 8c3d 3f19 e3bd
00000020: 99d7 30bd e1f5 cbbd 05cc 79bb fccb 9d3c
00000030: f07a b83d 5355 89be 088a 4bbe c4c3 293d
00000040: e698 433b 7800 833d 6269 90be cce7 973d
00000050: 821e abbd e050 8e3c 682f 5ebe 3c40 d93d
00000060: 08db 013e 3e20 eebd 1be6 d33d 0ccd 6cbe
00000070: aaaf 9f3d 5dad 1ebe b36a 8a3e a886 9abd
00000080: fee1 e8bd ffd1 d1bd 9736 5ebe 979d b3bd
00000090: 6299 9dbd a653 59be f219 a2bd e38c b8be
000000a0: 2fb4 673d 7488 32bd ce53 693b 947f b73c
000000b0: a122 96bd 1711 90be e394 c8bd 8a97 09be
000000c0: 1aea c9bd daf9 f13c a3b1 42be 9916 46bb
000000d0: 9240 3fbe 122c 4ebe a5fb 59bd 48ef 9fbd
000000e0: 5af8 1fbd 237c 42be 12a5 d83a 0651 193d
000000f0: 00e4 92bc 66e9 6abe cc98 24bd b1cd 24bd
00000100: 2c56 ccbb da1d 483e 1beb d73d 657d 8a3d
00000110: 0754 30be a281 87be d2bc 903b 0be3 a9bd
00000120: da06 57bd 9b0b a3bd b6f6 7a3d fc6d 41be
00000130: aba0 3bbe 4a20 123d a5cf 4dbe 7569 72be
00000140: bd8c 9bbd 8a33 46be fc73 063e c514 8e3d
00000150: b052 833d e9df 7abe 3ae8 2ebd d288 1fbd
00000160: 26fc 33be 5b7f 68be 76d7 87bd 95de 09be
00000170: 5cf4 3f3c e62b 3ebe d286 e9bb b2db 29be
00000180: cbb2 3dbe baa3 3a3d 748c 36be e7aa ecbd
00000190: e261 0e3d bf59 49be cf23 bc3d c333 413d
000001a0: bfb9 e53d 1358 11be 9ee2 cd3c 0cd6 483d
000001b0: 1ab2 d13c d56c 6cbe fc69 dabc 44b0 b1bd
000001c0: 942f 09bd e7c9 7ebe 1158 7ebe 0f71 49bd
000001d0: 0148 cfbd a2ea 8cbd f855 0bbd 9d81 063d
000001e0: bde8 f13d 42d5 f4bd 76e5 73be 56b1 50be
000001f0: cf01 d2bd 53e0 61bd 6cf9 65bd ed44 31be
00000200: d3b0 0cbe b47f 1fbe 185e c53c d23f 7c3d
00000210: 89c2 0e3e 32af 923e b6ac d43d 47fa 2cbd
00000220: 6373 703e d338 ea3c 8f63 abbc fa61 24be
00000230: 547c 8e3e d3a7 d83d e5d9 c73c 6a56 4dbd
00000240: e7e3 de3d d532 853d 2bd0 d73d d0b6 0bbd
00000250: d6a8 bdbd 9403 a23e 7cfd dbbd 5ec3 75bc
00000260: 1a99 7b3d f354 c93d 6784 c039 f9a8 403e
00000270: 32f2 b93c f101 28bd a5d5 5d3e ae06 113e
00000280: 1b82 1bbd 28b7 cb3b 1b1c e2bc dae8 14bd
00000290: 909f a23a 8be4 91bd c9ac 8bbd 7af6 0bbc
000002a0: 2926 e13c 0f1b bb3d 925b 2f3e 1a82 7cbc
000002b0: af64 193d 4087 56bb 8074 bd3c 416e ffbd
000002c0: 8f48 203e 9d54 193c 49b5 db3d 858a 0a3e
000002d0: 62fd a93d a97b 27bd eb19 78be f08e 8dbb
000002e0: 8f6f 3abd d81b ba3d a244 5ebd ccc2 cf3b
000002f0: e81f 913c 86e3 253e 1b41 0e3d 24ce 553d
00000300: 153f c43c 1020 893d a4a1 2d3d 61ca 0abe
00000310: 7787 f33d 8c0e 283e dd09 21be efdc 35bd
00000320: 0144 f53d 3acb 813c 8c1e abb9 9157 c83d
00000330: 17e6 d43c 37ab 65be 5d13 8a3d 7edc f7bc
00000340: 7582 5f3c 1ae3 97bc 5495 1d3d 0697 6bbd
00000350: 8696 dfbb e366 1dbe 86ab a4bd cc59 cfbd
00000360: 3621 593c 8ac2 2c3c 410a 6e3c 895b cfbc
00000370: e2a2 bcbd 4651 97bd 39ff 7bbd 0d45 813d
00000380: 93d5 bbbd 937e c33d 1ad2 c0bd a1fe f0bd
00000390: 023b d53d ecbb 4d3d 3d9c efbd 7304 b73b
000003a0: 2b25 983e f6b8 b5bd 3a09 86bd 2b5f eb3d
000003b0: 84a9 20be c49d 47bd 24ba 93bd 6057 22bd
000003c0: 5c01 e9bd 1443 a4bb e8fa 8f3d 37b3 c1bb
000003d0: 9de3 39bd e2f1 6fbd c0b2 5dbd 2d59 3c3c
000003e0: ee62 5e3d 1a91 c33d 334a 11bc facb babd
000003f0: 7f5f a4bd b88a 073c 4c58 fe3a 5832 d53d

gru.weight_hh_l0 f4 [384, 128]
-0.1513942 -0.016283588 0.019479737 0.16016011 0.054592025 -0.050195508 -0.049541354 0.15036571
-0.0103855105 -0.097613 -0.04956989 0.18780093 0.15131816 0.13992399 0.04210124 -0.047509838
-0.12543489 0.08164595 0.145081 0.07894596 -0.021231035 0.1491629 0.10116222 -0.15117885
-0.05868616 -0.016817302 0.2025874 -0.018715922 0.13205528 -0.031269416 0.090602994 0.069659404
0.19538145 0.11280909 -0.06637478 -0.13273485 0.15760782 0.18718603 0.10907908 0.120674916
0.19176637 -0.12862144 0.09781714 -0.12650107 0.08458585 -0.19362669 -0.06558682 -0.14237697
-0.16358706 0.17009814 0.0031644788 0.023445597 0.05816055 -0.09835013 -0.15730847 0.07688636
0.0876689 0.12567641 -0.12734 -0.047280714 -0.16950767 -0.2012062 -0.19549187 -0.17832501
0.09939992 0.109277725 0.053126633 0.1447561 -0.048710328 0.24640296 0.030664144 0.11133609
-0.103340365 0.01032698 0.098866105 0.077993564 -0.021343194 -0.14633644 -0.014974672 0.11487678
0.29940632 -0.049993433 -0.13522103 -0.0407423 0.08957133 0.055614363 0.09265598 -0.12847647
0.031953413 -0.0020845935 -0.15703969 -0.13363755 -0.28113097 -0.110277206 0.1251794 0.14048882
-0.050660107 0.15276809 0.009650915 -0.15656175 0.07439329 -0.20924287 -0.07964861 -0.010728313
0.03437922 -0.16633241 -0.1350555 0.10739067 -0.056226123 -0.039764278 -0.09085248 -0.009069676
0.009359173 0.11054925 0.0613816 -0.06810562 0.005829874 -0.13906243 0.12651095 -0.12988377
-0.02918669 0.0396742 0.022057423 -0.13660707 0.087156475 -0.12090974 -0.08409941 -0.06780388
-0.024507131 0.03283575 -0.011645445 -0.098392166 -0.105388686 -0.07316246 -0.10866742 -0.06812189
-0.26336908 0.16457383 -0.028873716 0.12924898 -0.0512012 -0.012907071 -0.1381278 0.05898862
0.052095614 -0.03921857 -0.05001036 0.06014074 0.008595574 0.18383637 0.03307503 -0.041807324
-0.03820557 -0.06311591 0.16478388 0.026832025 0.022629704 0.1502708 0.056442305 0.09066072
0.06385133 -0.26618943 0.11382361 -0.069122836 0.05995572 0.024635566 -0.035943262 0.019436551
0.07971662 0.14300616 0.06593773 -0.17034163 -0.032936677 0.023866896 -0.02571916 0.044574976
-0.10969509 0.10697283 0.020321788 0.004226031 -0.15465817 0.09995445 0.054688886 0.032054707
0.124754384 0.0093263555 -0.050927483 -0.17035995 -0.16436413 0.05271725 -0.08914283 -0.14878029
-0.15708345 -0.079588056 0.1201003 0.12668219 0.18016227 -0.11715702 0.04952809 -0.000934547
-0.06591291 -0.007849366 0.10306997 0.0623234 -0.019374797 -0.040603343 0.022656782 -0.036962777
-0.015213999 0.09869789 -0.1384345 -0.14858286 0.05080416 -0.034206968 0.11774203 -0.017221518
-0.022294445 -0.14770703 -0.053630933 0.028728474 -0.21046875 -0.004835251 0.16442133 0.07638612
-0.17132007 0.050042313 -0.09918043 0.06267956 0.17706667 0.0657332 0.05502321 0.015437925
0.18005924 -0.11748534 -0.1830797 0.04542056 -0.068651035 0.06819902 -0.031489924 -0.18890892
0.06394204 -0.030392513 -0.013928785 -0.02591465 0.14013498 -0.117505975 0.079968445 -0.09868225
-0.0741549 0.02589666 -0.1479812 -0.008818412 -0.040727295 0.020769337 0.07056106 0.019298427
00000000: 1507 1bbe 2965 85bc f893 9f3c 0301 243e
00000010: e39b 5f3d ce99 4dbd e0eb 4abd 78f9 193e
00000020: fd27 2abc 53e9 c7bd cc09 4bbd e34e 403e
00000030: 26f3 1a3e 3c48 0f3e 5a72 2c3d ad99 42bd
00000040: 0172 00be fe35 a73d 1d90 143e 6bae a13d
00000050: b5ec adbc 29be 183e 232e cf3d a1ce 1abe
00000060: e660 70bd 70c4 89bc 1273 4f3e 2252 99bc
00000070: 8039 073e 5c14 00bd 108e b93d 97a9 8e3d
00000080: 1312 483e 7408 e73d 80ef 87bd a5eb 07be
00000090: f263 213e b2ad 3f3e da64 df3d 6924 f73d
000000a0: 675e 443e 57b5 03be 5a54 c83d 7f89 01be
000000b0: 593b ad3d 1346 46be 6252 86bd 45cb 11be
000000c0: 5e83 27be 352e 2e3e 2563 4f3b fb10 c03c
000000d0: c239 6e3d cb6b c9bd 7915 21be 9976 9d3d
000000e0: c18b b33d 51b1 003e 6b65 02be 6ca9 41bd
000000f0: 6b93 2dbe 0009 4ebe 052f 48be d59a 36be
00000100: 2f92 cb3d 00cd df3d 509b 593d f13a 143e
00000110: 7b84 47bd 0f51 7c3e 5f33 fb3c 2d04 e43d
00000120: 1da4 d3bd 7e32 293c 507a ca3d 17bb 9f3d
00000130: ecd7 aebc 38d9 15be 5458 75bc 8444 eb3d
00000140: c94b 993e eac5 4cbd 6277 0abe 66e1 26bd
00000150: 2c71 b73d e3cb 633d 6bc2 bd3d 568f 03be
00000160: 95e1 023d ad9d 08bb 03cf 20be 48d8 08be
00000170: 66f0 8fbe 04d9 e1bd 072f 003e 4ddc 0f3e
00000180: f980 4fbd 3d6f 1c3e df1e 1e3c b951 20be
00000190: 825b 983d c343 56be cf1e a3bd cec5 2fbc
000001a0: 3ad1 0c3d 0b53 2abe fd4b 0abe a4ef db3d
000001b0: 5d4d 66bd dedf 22bd dd10 babd fa98 14bc
000001c0: 3757 193c a567 e23d 466b 7b3d f67a 8bbd
000001d0: 8708 bf3b 6266 0ebe 168c 013e 4000 05be
000001e0: ed18 efbc 6a81 223d c5b1 b43c b9e2 0bbe
000001f0: 187f b23d 879f f7bd 503c acbd c3dc 8abd
00000200: 2ec3 c8bc c87e 063d 89cc 3ebc d581 c9bd
00000210: 06d6 d7bd 33d6 95bd 068d debd 7d83 8bbd
00000220: 50d8 86be 0b86 283e 9288 ecbc d859 043e
00000230: 59b8 51bd 2e78 53bc 6071 0dbe 0d9e 713d
00000240: 3662 553d a7a3 20bd aad7 4cbd 2356 763d
00000250: 73d4 0c3c 9a3f 3c3e af79 073d 283e 2bbd
00000260: 727d 1cbd ea42 81bd 1bbd 283e d6ce db3c
00000270: ee61 b93c 97e0 193e 0c30 673d 54ac b93d
00000280: 7cc4 823d fb49 88be 5a1c e93d 4690 8dbd
00000290: 2194 753d 87d0 c93c 3e39 13bd 6739 9f3c
000002a0: 7842 a33d 3570 123e 5c0a 873d 096e 2ebe
000002b0: 9ce8 06bd 8284 c33c fdb0 d2bc 4094 363d
000002c0: d2a7 e0bd 9214 db3d e179 a63c 847a 8a3b
000002d0: b65e 1ebe ebb4 cc3d 7401 603d cc4b 033d
000002e0: 3a7f ff3d 92cd 183c 5699 50bd d772 2ebe
000002f0: 124f 28be 0bee 573d 8490 b6bd dc59 18be
00000300: 7cda 20be 10ff a2bd 25f7 f53d fab8 013e
00000310: 757c 383e 05f0 efbd f7dd 4a3d 63fc 74ba
00000320: 59fd 86bd a19a 00bc 5916 d33d d246 7f3d
00000330: e5b7 9ebc b14f 26bd b79a b93c 4866 17bd
00000340: 2344 79bc 1f22 ca3d c6c1 0dbe 1b26 18be
00000350: 0618 503d 9b1c 0cbd bc22 f13d 2414 8dbc
00000360: d7a2 b6bc 8340 17be 1cac 5bbd fa57 eb3c
00000370: 1f85 57be 0671 9ebb 115e 283e 5370 9c3d
00000380: 876e 2fbe 2bf9 4c3d 1c1f cbbd 245e 803d
00000390: f750 353e 219f 863d 0460 613d 5aef 7c3c
000003a0: 7361 383e 279c f0bd 3f79 3bbe e90a 3a3d
000003b0: ea98 8cbd eeab 8b3d 94fb 00bd 5771 41be
000003c0: 0bf4 823d b8f9 f8bc 8f35 64bc f64a d4bc
000003d0: 8b7f 0f3e f9a6 f0bd 7fc6 a33d eb19 cabd
000003e0: 86de 97bd 3b25 d43c 6288 17be 1a7b 10bc
000003f0: aad1 26bd 7524 aa3c 5182 903d bc17 9e3c

gru.bias_ih_l0 f4 [384]
-0.060726136 0.0032894588 -0.13708453 -0.10311274 -0.13816394 -0.1746177 -0.11608363 -0.045201648
-0.07097382 -0.11996316 -0.024397107 -0.11644865 0.010618269 -0.12763897 -0.12606926 -0.12919119
0.009275063 -0.09065902 -0.18134023 -0.13077116 -0.28238454 0.021743055 -0.081502914 0.12408551
-0.06870534 -0.12467249 -0.16227943 -0.1350708 -0.15477833 -0.19486077 0.05976023 -0.0656478
-0.19741549 -0.1956973 -0.22081348 -0.1429556 -0.09895641 -0.10302733 0.09416401 -0.2868302
-0.10530064 -0.007987171 -0.047894422 -0.04119443 -0.20227739 -0.25274774 -0.09443198 0.07244799
-0.11083401 -0.11543351 -0.1958973 -0.041735847 -0.11930602 -0.11021779 -0.12460734 -0.14972867
-0.17232738 -0.17225307 -0.19227064 -0.09522231 -0.21689169 -0.119866885 -0.18306078 -0.08537296
-0.06441298 0.05300278 -0.12127753 -0.02066836 -0.12478612 -0.09673796 0.014462545 0.060847238
-0.040419172 -0.11945938 -0.13578193 -0.11786778 -0.0943055 -0.011298374 -0.10666835 -0.2824984
-0.31818312 -0.09966304 -0.11122015 -0.1663592 -0.1942063 -0.18191516 -0.18417962 0.10599479
-0.19643399 -0.10511917 -0.007852474 -0.25072378 -0.14122143 -0.0077957097 -0.15276353 -0.07130887
-0.2047136 -0.17148022 -0.2347733 0.019635007 -0.013944376 -0.09162456 -0.08076759 -0.10636883
-0.008089713 -0.11765296 -0.03065156 -0.028254325 0.03550052 -0.25313696 -0.107042216 -0.12716317
-0.08609064 -0.10224782 -0.043700077 0.03198325 -0.0814292 -0.105795555 -0.12382286 -0.12914035
-0.08219798 -0.030857503 -0.21962595 -0.17174883 -0.25765723 -0.23394558 -0.08901754 -0.10158067
-0.29063693 -0.1760539 -0.19081041 0.051996052 -0.4034637 0.4062375 0.20883268 -0.20308183
0.1609881 -0.023401279 -0.09206109 -0.1424041 0.2957612 -0.31859773 -0.23858613 -0.027931891
-0.12757301 -0.16000238 -0.27092886 -0.13037428 -0.15987357 0.32446578 -0.074608855 -0.03427398
0.08858547 0.1052789 -0.13614705 0.22929205 -0.2567925 -0.25900507 0.2807399 -0.20225151
-0.22433531 -0.23041326 -0.22459085 -0.083438225 -0.099441275 -0.42336908 -0.06627832 -0.34650558
-0.16395248 -0.18655229 -0.14154583 -0.13591614 -0.16421957 -0.2561091 0.079176284 -0.24028836
-0.09240092 0.15923578 -0.053325444 0.06896883 -0.17555611 -0.2994664 -0.30784488 -0.13014342
-0.112594076 -0.11912866 -0.19552328 -0.28799137 -0.022543134 -0.27080005 -0.17176881 0.16080903
-0.10622162 0.23500465 -0.085963234 -0.06051493 -0.22898486 0.14355397 -0.20342112 -0.2821205
-0.04214383 -0.33488274 0.039224476 -0.29400015 -0.1635564 -0.0031478966 -0.35520685 -0.23154166
0.18275176 -0.19336233 -0.17398815 -0.12799598 -0.10537499 -0.23582287 -0.30291158 -0.21400306
-0.15987575 -0.30108002 -0.31354377 -0.21845165 -0.09007521 -0.24527887 -0.27258232 -0.23452954
-0.15447815 -0.27028146 -0.17213425 -0.18454927 0.12009425 -0.19959371 -0.24277948 0.0038696048
0.09228684 -0.18141688 -0.23176849 0.015342256 -0.21829444 -0.09283758 -0.16411152 -0.12698893
-0.22670008 -0.20087233 -0.234534 -0.07591832 -0.1731896 -0.14535715 -0.24183412 -0.24464396
-0.17972457 0.11641775 -0.28314796 -0.12712897 -0.24455178 -0.29861748 -0.013611236 -0.06832935
00000000: f8bb 78bd f693 573b e35f 0cbe c62c d3bd
00000010: d97a 0dbe fbce 32be 41bd edbd 5d25 39bd
00000020: b95a 91bd 3faf f5bd 71dc c7bc a17c eebd
00000030: 40f8 2d3c cab3 02be 4d18 01be b24a 04be
00000040: 6ff6 173c 70ab b9bd 41b1 39be e0e8 05be
00000050: b594 90be 7e1e b23c 00eb a6bd 8b20 fe3d
00000060: 63b5 8cbd 4a54 ffbd 942c 26be 0050 0abe
00000070: 367e 1ebe 9589 47be 25c7 743d 5b72 86bd
00000080: 4927 4abe df64 48be ee1c 62be f462 12be
00000090: a9a9 cabd feff d2bd 0fd9 c03d 68db 92be
000000a0: dda7 d7bd a0dc 02bc f12c 44bd 7ebb 28bd
000000b0: ce21 4fbe 2768 81be 8e65 c1bd 9d5f 943d
000000c0: f1fc e2bd 6768 ecbd 4d99 48be 35f3 2abd
000000d0: b756 f4bd ddb9 e1bd 2232 ffbd 7952 19be
000000e0: 9776 30be 1c63 30be 98e2 44be ea03 c3bd
000000f0: db18 5ebe c57c f5bd 4974 3bbe 05d8 aebd
00000100: f4ea 83bd 7119 593d 5b60 f8bd b150 a9bc
00000110: de8f ffbd 8d1e c6bd 4ff4 6c3c f43a 793d
00000120: 938e 25bd 1fa7 f4bd 6b0a 0bbe aa64 f1bd
00000130: 3e23 c1bd d11c 39bc f074 dabd a1a3 90be
00000140: e6e8 a2be 231c ccbd 64c7 e3bd 115a 2abe
00000150: 04de 46be f847 3abe 9599 3cbe cc13 d93d
00000160: fe25 49be b848 d7bd aaa7 00bc de5e 80be
00000170: 5a9c 10be 2773 ffbb 0b6e 1cbe 630a 92bd
00000180: 71a0 51be 8398 2fbe 6968 70be 98d9 a03c
00000190: f476 64bc a8a5 bbbd 7a69 a5bd e7d7 d9bd
000001a0: b78a 04bc 09f4 f0bd fb18 fbbc 9d75 e7bc
000001b0: fe68 113d 2b9b 81be f338 dbbd 1037 02be
000001c0: 4a50 b0bd 4e67 d1bd dafe 32bd de00 033d
000001d0: 5ac4 a6bd 57ab d8bd d796 fdbd 5e3d 04be
000001e0: 6a57 a8bd e0c8 fcbc a0e5 60be edde 2fbe
000001f0: a6eb 83be 6e8f 6fbe d44e b6bd 8709 d0bd
00000200: 5dce 94be 7947 34be ce63 43be d0f9 543d
00000210: cb92 cebe 5dfe cf3e 3cd8 553e aff4 4fbe
00000220: 11da 243e 0ab4 bfbc 868a bcbd 61d2 11be
00000230: 036e 973e 3e1f a3be ec4f 74be 6cd1 e4bc
00000240: 80a2 02be aad7 23be 30b7 8abe d680 05be
00000250: e6b5 23be 6120 a63e 87cc 98bd df62 0cbd
00000260: 4d6c b53d 779c d73d 226a 0bbe 89cb 6a3e
00000270: 4e7a 83be 509c 84be 24bd 8f3e 051b 4fbe
00000280: 28b8 65be 74f1 6bbe 25fb 65be a9e1 aabd
00000290: dea7 cbbd d5c3 d8be eebc 87bd 2e69 b1be
000002a0: 29e3 27be 9007 3fbe 64f1 10be 9a2d 0bbe
000002b0: 2d29 28be bb20 83be 2d27 a23d 270e 76be
000002c0: b23c bdbd b40e 233e c86b 5abd 883f 8d3d
000002d0: fbc4 33be a953 99be d89d 9dbe 5144 05be
000002e0: b997 e6bd baf9 f3bd 4137 48be 9b73 93be
000002f0: 61ac b8bc 4ea6 8abe 2ae4 2fbe 1fab 243e
00000300: b98a d9bd 0fa5 703e 7e0d b0bd 81de 77bd
00000310: 027b 6abe d0ff 123e a04d 50be 1972 90be
00000320: 029f 2cbd c075 abbe d8a9 203d 3087 96be
00000330: 547b 27be f14c 4ebb acdd b5be 4219 6dbe
00000340: 4723 3b3e c600 46be f329 32be 6111 03be
00000350: d8ce d7bd 8d7b 71be 3a17 9bbe 9e23 5bbe
00000360: 78b6 23be 2927 9abe cf88 a0be cab1 5fbe
00000370: 5a79 b8bd 622a 7bbe e98f 8bbe 8328 70be
00000380: 852f 1ebe 5562 8abe f643 30be 7cfa 3cbe
00000390: f9f3 f53d 4b62 4cbe 2f9b 78be 3299 7d3b
000003a0: e200 bd3d 59c5 39be b854 6dbe 165e 7b3c
000003b0: 9488 5fbe a121 bebd da0c 28be 6309 02be
000003c0: 1124 68be 7ab1 4dbe ae29 70be 107b 9bbd
000003d0: 9d58 31be 81d8 14be 5da3 77be f283 7abe
000003e0: b809 38be 6e6c ee3d c5f8 90be 192e 02be
000003f0: c86b 7abe 64e4 98be a901 5fbc 42f0 8bbd

gru.bias_hh_l0 f4 [384]
-0.024691237 0.05227372 -0.13205598 -0.09533397 -0.06126696 -0.1956826 -0.07348299 -0.015693963
-0.041202024 -0.13738924 -0.030207565 -0.14876565 -0.047382228 -0.12593684 -0.074082665 -0.16032642
-0.060316164 -0.11927837 -0.22774419 -0.13013062 -0.25923842 -0.062563665 -0.085988835 -0.039734535
0.0033349993 -0.1248616 -0.16271493 -0.112215444 -0.11583518 -0.058378942 0.026890567 -0.12981872
-0.13548239 -0.21768962 -0.2355592 -0.09741091 -0.046574514 -0.20208992 -0.011612863 -0.2953575
-0.15507744 -0.04356012 0.101474985 -0.0049684257 -0.18401894 -0.11662915 -0.036487263 -0.052984484
-0.06204937 -0.04316854 -0.17514907 -0.058694415 -0.14034377 0.042701844 -0.0140497815 -0.08897167
-0.12273087 -0.20238507 -0.19377692 -0.15312971 -0.10804207 -0.08000765 -0.23843671 -0.18252233
0.029497098 0.1350489 -0.23346473 0.038882345 -0.17356099 -0.16783565 -0.06602118 0.107555665
-0.06882913 -0.0867162 -0.08167045 -0.07886505 -0.04271572 -0.1399473 -0.16514882 -0.28463405
-0.23396257 -0.110382095 -0.20633724 -0.28055906 -0.12870573 -0.050001122 -0.20352304 0.0013296499
-0.2441007 -0.1071068 0.09567045 -0.15340902 -0.08708142 -0.040539786 -0.10553846 -0.23190798
-0.3008612 -0.089140154 -0.12917213 0.073072635 -0.012304029 0.00753046 -0.030007182 0.0027384332
-0.0412751 -0.21745886 -0.028503187 -0.08311576 0.12087642 -0.16517082 -0.19919762 -0.16635694
-0.07034689 -0.1859613 -0.052343126 0.06895145 -0.17510608 -0.15537348 -0.072569594 -0.15770383
0.014766828 -0.13634576 -0.24260128 -0.020983707 -0.1777391 -0.35251036 -0.06458108 -0.13289864
-0.30194855 -0.13215435 -0.22284718 0.016931886 -0.29120716 0.54660946 0.20160492 -0.22551666
0.1597334 -0.02094798 -0.17811003 -0.22605862 0.3007448 -0.2670855 -0.1695545 0.012007781
-0.15278943 -0.24763869 -0.2783264 -0.20967795 -0.12281302 0.2804892 -0.06738591 -0.036737677
0.06503598 0.12039466 -0.24638328 0.12648562 -0.19231671 -0.19874243 0.24029993 -0.076788016
-0.20933945 -0.23030327 -0.3136424 -0.029336661 -0.08385947 -0.34164864 -0.03346173 -0.22683388
-0.296774 -0.10598351 -0.19935243 -0.115358286 -0.014528982 -0.23575711 0.087553956 -0.16023655
-0.020574084 0.1478268 -0.032930315 0.16495821 -0.23455587 -0.26179996 -0.26179922 -0.24027102
-0.24010462 -0.16304523 -0.20520745 -0.18113317 0.04688769 -0.18830523 -0.18768312 0.12769584
-0.11120485 0.09849654 -0.07931651 -0.045711223 -0.28693986 0.03109984 -0.18370228 -0.17504193
-0.005904146 -0.30858925 0.14891873 -0.17144799 -0.057102624 -0.08847875 -0.29777622 -0.29005995
0.1898092 -0.24042264 -0.18328859 -0.16160184 -0.14287521 -0.2442381 -0.21609613 -0.31909472
-0.0091094095 -0.29386705 -0.26604518 -0.32157856 -0.0862395 -0.28480425 -0.20298587 -0.18274778
-0.23596108 -0.24742879 -0.121478274 -0.24993952 -0.03912715 -0.2935453 -0.30298898 -0.11395988
0.039367147 -0.25158247 -0.1749031 0.08110629 -0.2258328 -0.024986835 -0.17849027 -0.21777438
-0.253871 -0.32685927 -0.18815793 -0.17137706 -0.26817006 -0.23402567 -0.19711065 -0.18810564
-0.20598418 0.14654332 -0.30233738 -0.19418208 -0.2739908 -0.27725878 -0.01899999 -0.08141451
00000000: 4745 cabc f81c 563d af39 07be 753e c3bd
00000010: 10f3 7abd 0561 48be 407e 96bd a090 80bc
00000020: 74c3 28bd c4af 0cbe db75 f7bc 0656 18be
00000030: de13 42bd 96f5 00be a7b8 97bd 9c2c 24be
00000040: 150e 77bd 3848 f4bd c635 69be f640 05be
00000050: e6ba 84be 6121 80bd ea1a b0bd aec0 22bd
00000060: 0190 5a3b 70b7 ffbd be9e 26be 36d1 e5bd
00000070: ff3a edbd c21e 6fbd 9b49 dc3c 33ef 04be
00000080: e5bb 0abe 07ea 5ebe 6e36 71be 5f7f c7bd
00000090: ebc4 3ebd a9f0 4ebe e143 3ebc 1939 97be
000000a0: 9fcc 1ebe 196c 32bd 1ed2 cf3d 2dce a2bb
000000b0: 766f 3cbe 44db eebd ab73 15bd 4206 59bd
000000c0: 7b27 7ebd 7fd1 30bd 475a 33be 8e69 70bd
000000d0: 47b6 0fbe 21e8 2e3d 0e31 66bc c736 b6bd
000000e0: 535a fbbd 083e 4fbe 756d 46be 09ce 1cbe
000000f0: 2945 ddbd 0ddb a3bd c128 74be 22e7 3abe
00000100: e6a3 f13c 424a 0a3e 6111 6fbe 1843 1f3d
00000110: f9b9 31be 1cdd 2bbe 1d36 87bd 2546 dc3d
00000120: 49f6 8cbd 4398 b1bd d642 a7bd 0084 a1bd
00000130: aef6 2ebd 584e 0fbe c61c 29be 8ebb 91be
00000140: e293 6fbe 0210 e2bd 124a 53be 70a5 8fbe
00000150: 6fcb 03be facd 4cbd 5868 50be a647 ae3a
00000160: 89f5 79be cf5a dbbd deee c33d 4117 1dbe
00000170: be57 b2bd 0c0d 26bd 8c24 d8bd 4979 6dbe
00000180: 7b0a 9abe 1d8f b6bd b345 04be 1ba7 953d
00000190: d796 49bc 14c2 f63b 9fd1 f5bc 4977 333b
000001a0: 1410 29bd 89ad 5ebe 847f e9bc 9838 aabd
000001b0: 0e8e f73d 8a22 29be 76fa 4bbe 7959 2abe
000001c0: 0812 90bd a46c 3ebe bf65 56bd 6b36 8d3d
000001d0: 024f 33be 3a1a 1fbe 5e9f 94bd 1d7d 21be
000001e0: 91f0 713c 399e 0bbe 786c 78be 06e6 abbc
000001f0: 3d01 36be 3d7c b4be 1643 84bd 9516 08be
00000200: 0099 9abe 7853 07be 0d32 64be bdb4 8a3c
00000210: 1b19 95be 99ee 0b3f 8571 4e3e d7ed 66be
00000220: 2791 233e 199b abbc 7a62 36be e97b 67be
00000230: 39fb 993e 6ebf 88be b29f 2dbe 49bc 443c
00000240: d574 1cbe ff94 7dbe cc80 8ebe d1b5 56be
00000250: 6585 fbbd 489c 8f3e a001 8abd 3f7a 16bd
00000260: 9531 853d 7a91 f63d e64b 7cbe 7285 013e
00000270: acee 44be 2383 4bbe 2f11 763e 0943 9dbd
00000280: 155d 56be 9fd4 6bbe bd95 a0be 7053 f0bc
00000290: 84be abbd 92ec aebe 2b0f 09bd 2447 68be
000002a0: c3f2 97be e20d d9bd 0b23 4cbe f740 ecbd
000002b0: f80a 6ebc 506a 71be 7d4f b33d 0d15 24be
000002c0: fb8a a8bc e95f 173e f0e1 06bd ceea 283e
000002d0: 6a2f 70be a50a 86be 8c0a 86be 9b09 76be
000002e0: fcdd 75be 54f5 26be e721 52be f97a 39be
000002f0: 4e0d 403d 16d3 40be 0130 40be b3c2 023e
00000300: 5ebf e3bd 8eb8 c93d b270 a2bd b13b 3bbd
00000310: c8e9 92be 17c5 fe3c 731c 3cbe 313e 33be
00000320: 9177 c1bb 69ff 9dbe 277e 183e 1090 2fbe
00000330: 71e4 69bd 5934 b5bd 2076 98be bd82 94be
00000340: 585d 423e 5a31 76be 01b0 3bbe f47a 25be
00000350: e14d 12be 8d19 7abe 4e48 5dbe 6260 a3be
00000360: a23f 15bc be75 96be 1337 88be f2a5 a4be
00000370: 569e b0bd ddd1 91be 87db 4fbe 3c22 3bbe
00000380: c89f 71be f95d 7dbe 9ac9 f8bd 25f0 7fbe
00000390: ca43 20bd 924b 96be 5f21 9bbe cc63 e9bd
000003a0: 723f 213d 6bcf 80be cc19 33be 0e1b a63d
000003b0: b740 67be 31b1 ccbc 27c6 36be 3f00 5fbe
000003c0: 61fb 81be 195a a7be 79ac 40be 787d 2fbe
000003d0: 964d 89be 6da4 6fbe 60d7 49be c49e 40be
000003e0: 84ed 52be 740f 163e f7cb 9abe abd7 46be
000003f0: 8648 8cbe ddf4 8dbe dea5 9bbc a7bc a6bd

gru.weight_ih_l1 f4 [384, 128]
-0.089461625 -0.16696572 0.13375339 -0.015840566 0.09156492 -0.09511767 0.0073463405 0.20707284
-0.32615703 0.08842474 -0.11396112 0.19295247 -0.19805807 -0.026103692 0.22411913 -0.0587121
-0.1968489 0.25648233 0.07165944 0.19206086 -0.1996961 0.014416626 -0.04968205 -0.12826551
-0.06560196 -0.069903225 0.20425385 -0.036881838 0.13760354 0.020033991 -0.101737134 0.21021351
0.097338185 0.08936302 -0.11359921 -0.06357336 0.165697 0.09166625 0.06411429 0.1833567
0.18458794 -0.23485406 0.04984746 -0.17578326 0.10234203 -0.033709023 -0.14928919 -0.08681418
-0.24786188 0.06163355 0.019947644 0.05791099 0.10255952 -0.23549774 -0.17522739 0.08477651
0.08086893 -0.11124329 -0.23767775 -0.16730689 -0.10382354 -0.13323525 -0.22926973 -0.2117846
-0.14517747 0.049346376 0.11751888 0.04673891 -0.07376092 0.07033691 0.15471478 0.18504873
0.15444554 -0.05970488 0.20437564 -0.009678316 -0.0007207614 -0.07668101 0.07780434 0.16693647
0.2399107 -0.07424501 -0.19594939 -0.12784082 0.09912397 0.06994389 0.23197934 -0.14164537
0.09172027 0.10140112 -0.06885158 0.07513454 -0.07580166 -0.1585817 0.19039991 0.17005214
-0.071242124 0.33132997 0.08663023 -0.09993626 -0.11711391 -0.12003329 -0.22647038 0.009972083
-0.038150407 -0.14887586 -0.1212821 -0.026645133 -0.048377927 0.13111636 -0.31472698 0.15989673
-0.17422941 0.19633496 0.19768777 -0.19101307 0.08213075 -0.2584141 -0.093538545 -0.2645625
-0.23035496 0.020077858 -0.008580991 -0.1381452 0.1816067 -0.18691641 -0.112311706 -0.10567428
-0.1413569 -0.049051255 0.17457253 -0.11061846 0.026863005 0.13490249 -0.06629993 0.079093166
-0.07397093 -0.067817286 -0.093663186 0.08100626 -0.056943566 0.07322711 0.10250385 0.04119835
-0.111783735 0.08465558 0.029418724 0.06424311 -0.02491865 0.09298674 0.0075988956 -0.16391939
0.0757286 -0.0018586533 0.06875487 -0.10986742 0.122969314 -0.045136373 0.079712555 0.07494048
0.16220576 0.0831268 -0.11718708 -0.15313801 0.052895732 0.18461542 0.1498972 0.13065587
0.16503952 -0.060054284 0.0029126948 -0.09669677 -0.025467137 -0.031523462 -0.023239356 -0.06139866
-0.09439216 0.13545205 -0.065911785 0.19574998 -0.025811058 -0.091241844 -0.1885421 -0.023840597
0.026232334 0.080812216 -0.11704818 -0.114028186 0.056126915 -0.06893049 -0.17629778 -0.10477424
-0.101835445 0.151985 0.09524754 0.19912583 0.08039489 0.1468325 0.063371435 0.110843435
0.08796677 -0.01119005 0.13637269 -0.134149 0.08940436 -0.07969156 0.0619379 0.05064184
0.24987732 -0.13570197 -0.121154554 -0.13762183 0.05112814 0.056579784 0.01184956 -0.137537
-0.089527376 0.060988348 -0.15030706 -0.10166426 -0.1410354 -0.057373878 0.16743125 0.022514204
-0.10503789 0.11874991 0.09904068 -0.13459498 -0.08323385 -0.15501203 -0.025945505 -0.016683262
0.042525575 0.004685593 -0.2571089 0.110051624 -0.104581796 -0.023504602 -0.020924674 0.0026327502
-0.09857344 0.20673174 0.043783654 0.089303784 0.019637372 -0.16733128 0.09382134 -0.1725698
-0.124526456 0.034021642 0.0036695974 -0.14396872 0.13694529 -0.1532212 -0.09335961 0.044284545
00000000: a837 b7bd 10f9 2abe a6f6 083e 13c4 81bc
00000010: 6486 bb3d 0ecd c2bd 92b9 f03b e70a 543e
00000020: 0efe a6be 0818 b53d 7364 e9bd 5595 453e
00000030: bccf 4abe 69d7 d5bc 7c7f 653e 197c 70bd
00000040: c292 49be a751 833e 2fc2 923d 9aab 443e
00000050: 227d 4cbe b633 6c3c 687f 4bbd 0958 03be
00000060: 525a 86bd 6c29 8fbd ec27 513e 6911 17bd
00000070: f1e7 0c3e 531e a43c 8f5b d0bd 3642 573e
00000080: 3e59 c73d f603 b73d b4a6 e8bd c032 82bd
00000090: 79ac 293e 84bb bb3d 5a4e 833d dcc1 3b3e
000000a0: 9f04 3d3e 957d 70be da2c 4c3d 8700 34be
000000b0: b398 d13d 7912 0abd 44df 18be a2cb b1bd
000000c0: 81cf 7dbe 7673 7c3d 3e69 a33c 1334 6d3d
000000d0: ba0a d23d 5226 71be cf6e 33be 4f9f ad3d
000000e0: 9c9e a53d 86d3 e3bd cc61 73be 7f52 2bbe
000000f0: 70a1 d4bd d26e 08be afc5 6abe 10de 58be
00000100: 67a9 14be 6d1f 4a3d bdad f03d 4d71 3f3d
00000110: f70f 97bd cc0c 903d 8d6d 1e3e 6a7d 3d3e
00000120: f926 1e3e 1b8d 74bd d947 513e cd91 1ebc
00000130: 7bf1 3cba ef0a 9dbd e257 9f3d 65f1 2a3e
00000140: 27ab 753e c50d 98bd f5a6 48be b4e8 02be
00000150: 8201 cb3d be3e 8f3d fe8b 6d3e 7c0b 11be
00000160: d6d7 bb3d 64ab cf3d 0f02 8dbd 23e0 993d
00000170: e73d 9bbd 3e63 22be 32f8 423e 2622 2e3e
00000180: 64e7 91bd 15a4 a93e 316b b13d 62ab ccbd
00000190: 6bd9 efbd 03d4 f5bd dae7 67be f361 233c
000001a0: 9a43 1cbd ea72 18be c062 f8bd e546 dabc
000001b0: ef27 46bd 5e43 063e e523 a1be f8bb 233e
000001c0: 3269 32be 080c 493e aa6e 4a3e ee98 43be
000001d0: 2b34 a83d da4e 84be 2391 bfbd bc74 87be
000001e0: 2ce2 6bbe 527a a43c 4997 0cbc ef75 0dbe
000001f0: 1bf7 393e 0467 3fbe ae03 e6bd c26b d8bd
00000200: ddbf 10be f8e9 48bd 24c3 323e ee8b e2bd
00000210: ce0f dc3c e123 0a3e 42c8 87bd 99fb a13d
00000220: 127e 97bd cae3 8abd 7cd2 bfbd 9ce6 a53d
00000230: a83d 69bd 18f8 953d 8aed d13d 9abf 283d
00000240: dfee e4bd e85f ad3d 89ff f03c e491 833d
00000250: 3222 ccbc d56f be3d 2800 f93b 7cda 27be
00000260: 9917 9b3d 0e9e f3ba 5acf 8c3d 2b02 e1bd
00000270: 56d7 fb3d ebe0 38bd 5640 a33d 657a 993d
00000280: 4419 263e 623e aa3d c8ff efbd 36d0 1cbe
00000290: 32a9 583d d30b 3d3e a77e 193e a7ca 053e
000002a0: 1f00 293e 7bfb 75bd e9e2 3e3b f508 c6bd
000002b0: 75a0 d0bc bf1e 01bd 7660 bebc 297d 7bbd
000002c0: ad50 c1bd f1b3 0a3e c2fc 86bd af72 483e
000002d0: b671 d3bc 01dd babd 2e11 41be 5b4d c3bc
000002e0: 31e5 d63c e080 a53d f5b6 efbd 9c87 e9bd
000002f0: 56e5 653d 6e2b 8dbd 6887 34be e093 d6bd
00000300: 1a8f d0bd f5a1 1b3e 2411 c33d a4e7 4b3e
00000310: 13a6 a43d 425b 163e e2c8 813d e201 e33d
00000320: ec27 b43d 7956 37bc 48a5 0b3e 5b5e 09be
00000330: a219 b73d 5435 a3bd 98b2 7d3d d16d 4f3d
00000340: d7df 7f3e 75f5 0abe e11f f8bd bdec 0cbe
00000350: be6b 513d 34c0 673d a824 423c 80d6 0cbe
00000360: 215a b7bd ebce 793d 18ea 19be 5a35 d0bd
00000370: 956b 10be df00 6bbd 1973 2b3e b56f b83c
00000380: 1b1e d7bd 2733 f33d d7d5 ca3d 44d3 09be
00000390: 8276 aabd 79bb 1ebe ab8b d4bc 56ab 88bc
000003a0: 4c2f 2e3d 9a89 993b c7a3 83be bf62 e13d
000003b0: fb2e d6bd b98c c0bc 396a abbc 388a 2c3b
000003c0: dfe0 c9bd 7cb1 533e 7d56 333d e7e4 b63d
000003d0: 8ede a03c e458 2bbe 6725 c03d 23b6 30be
000003e0: ba07 ffbd 475a 0b3d a17d 703b 896c 13be
000003f0: 633b 0c3e 05e6 1cbe 5333 bfbd b663 353d

gru.weight_hh_l1 f4 [384, 128]
0.015224803 0.028801316 -0.018009705 0.08277189 -0.19052555 0.02591724 -0.07596095 -0.122607045
0.009299544 0.10681722 0.0031852326 0.21446082 0.069063574 0.04481812 0.050180797 -0.07111802
0.035459023 0.102893755 0.034056958 0.058184665 0.074392065 -0.096355446 -0.21039037 0.12191367
0.027144667 0.12227793 -0.008309959 -0.15563662 0.039912205 0.10967523 -0.065401345 0.066109315
-0.034750324 -0.043036237 -0.048734635 0.052430496 0.048420463 -0.0902499 0.06119595 -0.08687071
0.07999616 -0.12176598 0.0111900745 -0.039636664 -0.046881072 0.09001633 -0.0020502594 0.0012939177
0.14487062 0.10186912 -0.10805275 0.13643569 0.16969487 0.07828917 0.059029747 -0.005056415
0.022890853 0.04209887 -0.068677925 -0.041346088 -0.09179783 0.019622296 0.09453523 0.051881693
-0.12160376 0.0030810756 0.044259686 0.05031311 -0.036711168 -0.04511357 0.062321052 0.037197243
-0.05668498 -0.10125876 0.021268852 -0.07703688 0.014322666 -0.02914931 -0.031394333 0.06309176
0.031767834 -0.010178844 -0.033476155 0.116054066 0.10560426 0.005638924 -0.0014147979 -0.005734651
0.11237329 0.044958882 0.12071645 -0.10068713 0.03764067 -0.1779122 0.044608437 -0.08843042
0.095684595 -0.048047155 -0.02856105 -0.0892532 0.073603764 -0.10955104 -0.042828307 -0.11130833
-0.07469427 -0.10462352 -0.08508333 0.022924336 -0.046314277 0.19353944 0.030297147 0.06558191
0.01974171 -0.114115044 -0.053274993 0.057203334 0.044260904 -0.08811906 -0.026745839 0.14276052
0.07115584 -0.033268318 -0.14906918 0.04791675 0.11173242 0.13898171 0.11873403 0.06538468
-0.091663696 -0.18483211 0.06598083 0.19457106 -0.29218036 0.017425144 -0.11927537 -0.17373697
-0.042351924 0.083782755 -0.11990809 0.02933691 0.13253614 0.02937146 0.07447914 0.12837456
0.11820774 0.13400835 -0.1172438 -0.12443833 0.10025004 0.004677296 -0.14926851 0.08239074
-0.001502962 -0.0425001 -0.07658789 -0.12653425 -0.048041474 -0.05082012 0.02924601 0.15696351
-0.019731257 -0.028712936 0.16256218 0.082863465 0.10011344 -0.1415387 -0.06179625 -0.106538646
0.105121836 -0.15885118 -0.07171585 0.0502662 0.056647703 -0.026610708 -0.059600305 -0.08771621
0.07215665 0.12736802 -0.16580863 0.0630342 -0.12985735 0.13670541 -0.010674094 0.06948526
0.011821107 0.06301493 -0.13441712 0.03669083 -0.041112605 -0.07967987 0.10793904 0.08263351
-0.09627656 0.08776373 -0.06486542 0.15070252 -0.09923866 -0.11273907 0.1300751 0.11856996
-0.098416336 -0.029987687 0.14280705 -0.047492072 0.08456664 0.0077676587 0.06864996 0.071921594
0.1231655 0.046143197 0.1851873 0.037532486 0.15752752 -0.012998083 0.046829127 -0.022196906
0.12504376 -0.009053263 0.13534252 -0.0633653 -0.08214416 -0.17225727 0.118949935 -0.06410262
0.068132244 -0.15585667 -0.1394768 -0.007776941 0.044485103 -0.20520769 -0.15707423 -0.0073643723
-0.13543773 -0.06319044 -0.16931437 -0.007832076 -0.07663646 0.065928526 0.10751863 0.04050492
0.14920521 -0.1311658 -0.13727644 0.0012748291 0.04535869 -0.015512001 0.008318222 0.10666801
0.123825096 0.01043766 -0.13792856 0.031457294 0.06110546 0.032372743 0.023807986 -0.14582942
00000000: 7471 793c bdf0 eb3c 1789 93bc 4f84 a93d
00000010: 2119 43be 6450 d43c 6a91 9bbd 6719 fbbd
00000020: 1d5d 183c fdc2 da3d 56bf 503b 9e9b 5b3e
00000030: 3471 8d3d 3493 373d 618a 4d3d 53a6 91bd
00000040: 7b3d 113d f6b9 d23d 4f7f 0b3d 0b53 6e3d
00000050: de5a 983d 0156 c5bd 9370 57be e0ad f93d
00000060: 7e5e de3c da6c fa3d 7f26 08bc 355f 1fbe
00000070: fb7a 233d 689d e03d 24f1 85bd 5264 873d
00000080: 5b56 0ebd c446 30bd f89d 47bd 5cc1 563d
00000090: 8954 463d f1d4 b8bd 9ba8 7a3d 45e9 b1bd
000000a0: 07d5 a33d 7160 f9bd 9356 373c 0e5a 22bd
000000b0: 5e06 40bd 7b5a b83d a55d 06bb ac98 a93a
000000c0: f758 143e c2a0 d03d c34a ddbd ccb5 0b3e
000000d0: 7ec4 2d3e 1356 a03d 2dc9 713d 49b0 a5bb
000000e0: 9985 bb3c dd6f 2c3d 03a7 8cbd 845a 29bd
000000f0: 8000 bcbd f0be a03c b09b c13d e681 543d
00000100: 640b f9bd dfeb 493b a549 353d 1f15 4e3d
00000110: 735e 16bd 02c9 38bd 5c44 7f3d 235c 183d
00000120: 822e 68bd c160 cfbd 043c ae3c 83c5 9dbd
00000130: 9ea9 6a3c 89ca eebc 5897 00bd 4136 813d
00000140: fd1e 023d 2bc5 26bc 4b1e 09bd c1ad ed3d
00000150: 0c47 d83d b9c6 b83b bd70 b9ba bde9 bbbb
00000160: f823 e63d ce26 383d 303a f73d 0e35 cebd
00000170: 1a2d 1a3d 9e2e 36be 56b7 363d 021b b5bd
00000180: 49f6 c33d 18cd 44bd ddf8 e9bc 62ca b6bd
00000190: 92bd 963d 4c5c e0bd bc6c 2fbd 9ff5 e3bd
000001a0: 4ff9 98bd db44 d6bd 2b40 aebd d1cb bb3c
000001b0: 0ab4 3dbd 342f 463e b931 f83c cf4f 863d
000001c0: 5eb9 a13c 26b5 e9bd e136 5abd 0b4e 6a3d
000001d0: ec4a 353d c477 b4bd 171a dbbc d02f 123e
000001e0: 27ba 913d 5c44 08bd 97a5 18be 5b44 443d
000001f0: f8d3 e43d 3951 0e3e d42a f33d 67e8 853d
00000200: 2dba bbbd a144 3dbe f520 873d a33d 473e
00000210: aa98 95be 2dbf 8e3c a546 f4bd 1be8 31be
00000220: 3679 2dbd 4b96 ab3d 5f92 f5bd f653 f03c
00000230: 8eb7 073e 6b9c f03c 8588 983d 9f74 033e
00000240: e616 f23d 7c39 093e 841d f0bd 86d9 febd
00000250: e54f cd3d 0144 993b d8d9 18be 7abc a83d
00000260: 09ff c4ba 9614 2ebd 1dda 9cbd 3292 01be
00000270: 23c7 44bd c228 50bd 5495 ef3c 0bbb 203e
00000280: 72a3 a1bc 6437 ebbc b376 263e 52b4 a93d
00000290: 4608 cd3d 85ef 10be 111e 7dbd ef30 dabd
000002a0: 1e4a d73d e2a9 22be c2df 92bd eee3 4d3d
000002b0: 6c07 683d b3fe d9bc 731f 74bd 8ea4 b3bd
000002c0: dec6 933d c36c 023e bdc9 29be 1318 813d
000002d0: 53f9 04be 81fc 0b3e 65e2 2ebc 4a4e 8e3d
000002e0: 51ad 413c f90d 813d a4a4 09be 2049 163d
000002f0: b165 28bd 332f a3bd 250f dd3d c23b a93d
00000300: a52c c5bd 78bd b33d 29d8 84bd c351 1a3e
00000310: a33d cbbd bee3 e6bd 6832 053e cfd4 f23d
00000320: 818e c9bd bda8 f5bc 033c 123e 0c87 42bd
00000330: 4631 ad3d d887 fe3b 5a98 8c3d a14b 933d
00000340: 323e fc3d a600 3d3d bda1 3d3e aabb 193d
00000350: e54e 213e e9f5 54bc e6cf 3f3d 49d6 b5bc
00000360: 790b 003e 2354 14bc 3b97 0a3e abc5 81bd
00000370: 333b a8bd 3664 30be 069c f33d 3c48 83bd
00000380: eb88 8b3d e498 1fbe 02d3 0ebe b6d5 febb
00000390: 0336 363d f721 52be 11d8 20be d550 f1bb
000003a0: 30b0 0abe fd69 81bd bf60 2dbe 1c52 00bc
000003b0: 94f3 9cbd 8905 873d ba32 dc3d 7de8 253d
000003c0: 40c9 183e 5450 06be 3292 0cbe 2b18 a73a
000003d0: 09ca 393d 0c26 7ebc 2749 083c c274 da3d
000003e0: 0398 fd3d b802 2b3c 253d 0dbe 5dd9 003d
000003f0: b849 7a3d 4899 043d f708 c33c 4f54 15be

gru.bias_ih_l1 f4 [384]
-0.06161447 0.0061096186 0.10445151 -0.24572201 -0.07044594 -0.0592049 0.044781294 0.06033202
0.13127866 -0.0045131617 -0.1135162 0.10937705 0.07842311 -0.015250497 0.02173062 -0.18288232
0.065072656 -0.13095738 0.05714039 0.07475829 -0.04765674 -0.027791634 0.020290177 -0.045517992
-0.10340277 -0.06111829 -0.0008880303 -0.08781822 -0.11498761 -0.19835614 0.09333101 -0.033862047
0.05854533 0.027445132 0.118914925 -0.14213936 0.013050196 0.062498204 -0.18534592 -0.0010326644
0.004825903 -0.13277484 -0.0264736 -0.034788977 -0.082095765 0.0024431513 -0.009362471 -0.054049455
-0.043147963 0.034632232 -0.045095082 -0.063731946 0.051024564 -0.30442053 -0.13397472 -0.112917155
0.1750161 -0.016247097 -0.17167543 -0.017849904 0.03673264 -0.17038016 0.05159981 -0.0789682
-0.115769625 0.10572914 0.11661883 0.15197179 -0.05372006 0.0723288 0.023931691 -0.13297635
-0.091970876 -0.027894875 -0.07522678 -0.08966228 -0.14278427 -0.0399775 -0.08434284 -0.12594908
-0.1598392 -0.09018031 -0.17273179 0.15272142 0.093345456 -0.041514903 -0.018453259 0.009957655
-0.042100754 0.050005306 -0.10919062 0.017007552 -0.2980241 0.07368593 -0.14140534 -0.0993028
0.09495165 0.011246206 -0.16279142 0.027720995 -0.03753298 0.01842908 0.06360536 -0.023691041
0.025917787 0.029741123 -0.1359326 -0.036806297 0.02248384 -0.058463465 0.028291104 -0.024153177
-0.16995808 -0.18423532 -0.050008733 -0.069777735 -0.0005202867 -0.037358142 -0.14893253 -0.066940546
-0.07868599 -0.01677985 -0.15169042 0.12182119 -0.06632379 0.02878544 -0.11433339 -0.20507164
-0.17701761 -0.19808806 -0.16735613 0.046753753 -0.063689314 0.116515554 -0.060339063 -0.1511946
-0.056334987 -0.0734971 -0.12660256 0.11577125 -0.09589398 -0.020650519 -0.24160123 -0.041262493
-0.14997734 0.024549814 0.037265077 -0.18370251 0.029312737 0.13451523 -0.15698205 0.041248344
-0.1011198 -0.18407558 -0.25110492 -0.13575763 -0.047966372 -0.06245986 -0.043883897 -0.11410554
-0.1956625 -0.13579752 -0.10917855 -0.0992225 -0.037996747 -0.014847262 -0.07575244 -0.17489561
-0.092772014 0.0752664 -0.015088296 -0.20362927 -0.008137741 -0.15926965 -0.21156079 -0.0058560846
0.08629133 -0.00441018 -0.024186645 0.13383321 0.115844026 -0.0019236667 -0.13903245 0.11967538
-0.15058777 -0.02333859 -0.08231887 -0.17105246 -0.052959498 -0.031670343 0.029937617 -0.0819022
-0.007965554 -0.015017331 -0.0059538116 -0.15295038 0.14796871 -0.031177934 0.0625323 -0.030339861
-0.12095622 -0.07568041 0.15633307 -0.07319732 -0.004375202 0.2128951 -0.2218677 0.11200607
-0.036903165 -0.045843966 0.010247932 -0.19380003 0.043417376 0.19521978 0.069949895 0.02712187
-0.05788522 -0.16904797 -0.1151346 -0.14765686 -0.07256053 -0.16639255 0.10926258 -0.0009979353
-0.024706727 -0.111177914 0.07438246 -0.048570797 -0.0027921651 0.07769387 -0.08021752 -0.10621212
-0.08307626 -0.07249917 -0.05028065 -0.06948512 -0.20483738 -0.03240263 -0.1876236 -0.13437594
-0.0138943335 0.14382964 0.12705599 -0.08666046 -0.050046887 0.056175772 -0.13878386 0.11827759
0.1374714 -0.08898503 -0.089626975 -0.158658 0.12945433 -0.044851847 -0.07039743 -0.17495129
00000000: 745f 7cbd 3233 c83b acea d53d 8d9e 7bbe
00000010: f645 90bd d680 72bd 976c 373d b51e 773d
00000020: ea6d 063e 25e3 93bb 2e7b e8bd 1301 e03d
00000030: 4c9c a03d 38dd 79bc 6a04 b23c 8145 3bbe
00000040: d044 853d b119 06be 0b0c 6a3d e01a 993d
00000050: b733 43bd 48ab e3bc 9637 a63c 1371 3abd
00000060: d5c4 d3bd 2c57 7abd b4ca 68ba 0ada b3bd
00000070: a07e ebbd df1d 4bbe 5424 bf3d eeb2 0abd
00000080: 3acd 6f3d 9dd4 e03c ab89 f33d fb8c 11be
00000090: 7dd0 553c 1efe 7f3d 52cb 3dbe 785a 87ba
000000a0: 9c22 9e3b 21f6 07be 2adf d8bc e37e 0ebd
000000b0: d321 a8bd 471d 203b 0d65 19bc f662 5dbd
000000c0: ebbb 30bd 87da 0d3d 9fb5 38bd e585 82bd
000000d0: 22ff 503d 02dd 9bbe ab30 09be 1c41 e7bd
000000e0: 6c37 333e a218 85bc afcb 2fbe f639 92bc
000000f0: f774 163d 2378 2ebe 535a 533d 14ba a1bd
00000100: a018 edbd 8588 d83d dad5 ee3d 7e9e 1b3e
00000110: 9109 5cbd 1f21 943d 650c c43c f42a 08be
00000120: 3a5b bcbd cb83 e4bc 7f10 9abd dca0 b7bd
00000130: 0a36 12be 72bf 23bd f0bb acbd ccf8 00be
00000140: e3ac 23be 74b0 b8bd 9ae0 30be 0163 1c3e
00000150: e72b bf3d 880b 2abd 4a2b 97bc 6f25 233c
00000160: d771 2cbd 5dd2 4c3d 559f dfbd 6c53 8b3c
00000170: 9d96 98be a6e8 963d 90cc 10be 445f cbbd
00000180: 0376 c23d 0242 383c cbb2 26be 2417 e33c
00000190: 2fbc 19bd 95f8 963c 8743 823d b713 c2bc
000001a0: 8a51 d43c a8a3 f33c ea31 0bbe 33c2 16bd
000001b0: 0830 b83c 6377 6fbd bfc2 e73c e2dc c5bc
000001c0: 7e09 2ebe 2fa8 3cbe f5d5 4cbd a1e7 8ebd
000001d0: d963 08ba da04 19bd c581 18be 2018 89bd
000001e0: 1f26 a1bd e575 89bc bc54 1bbe 637d f93d
000001f0: c4d4 87bd 71cf eb3c a027 eabd 4dfe 51be
00000200: 1b44 35be 99d7 4abe 685f 2bbe dd80 3f3d
00000210: 8b6f 82bd b59f ee3d 1826 77bd c2d2 1abe
00000220: 84bf 66bd a685 96bd 1aa4 01be 7a19 ed3d
00000230: 1064 c4bd 472b a9bc 5066 77be dc02 29bd
00000240: a993 19be b11c c93c 44a3 183d 831c 3cbe
00000250: 4421 f03c 5cbe 093e e7bf 20be 06f4 283d
00000260: e617 cfbd 4f7e 3cbe d390 80be 0c04 0bbe
00000270: 6378 44bd e9d5 7fbd 9abf 33bd 2ab0 e9bd
00000280: c05b 48be 810e 0bbe 0199 dfbd 2b35 cbbd
00000290: 7aa2 1bbd ee41 73bc 1824 9bbd d617 33be
000002a0: 41ff bdbd 4525 9a3d e634 77bc 3184 50be
000002b0: 2954 05bc 9517 23be 64a3 58be 66e4 bfbb
000002c0: 82b9 b03d 4583 90bb 1223 c6bc 930b 093e
000002d0: a23f ed3d 8b23 fcba 865e 0ebe 5e18 f53d
000002e0: ae33 1abe 9230 bfbc cc96 a8bd 6028 2fbe
000002f0: 0fec 58bd c3b8 01bd bc3f f53c 57bc a7bd
00000300: f481 02bc 400b 76bc 3118 c3bb 069f 1cbe
00000310: 1c85 173e de68 ffbc ef10 803d 4d8b f8bc
00000320: e5b7 f7bd 55fe 9abd c715 203e 7ae8 95bd
00000330: db5d 8fbb 2c01 5a3e 4931 63be 7063 e53d
00000340: c627 17bd e2c6 3bbd f1e6 273c 8473 46be
00000350: 6bd6 313d b2e7 473e e441 8f3d af2e de3c
00000360: 0d19 6dbd e91a 2dbe b0cb ebbd 5c33 17be
00000370: 9d9a 94bd cf62 2abe 0fc5 df3d 27cd 82ba
00000380: c365 cabc 3fb1 e3bd d555 983d 2cf2 46bd
00000390: c2fc 36bb f71d 9f3d 1549 a4bd bd85 d9bd
000003a0: e323 aabd 727a 94bd 15f3 4dbd 374e 8ebd
000003b0: e4c0 51be 9fb8 04bd 6720 40be d999 09be
000003c0: 0fa5 63bc 1448 133e f71a 023e 0a7b b1bd
000003d0: f7fd 4cbd 9118 663d 5b1d 0ebe 853b f23d
000003e0: 4dc5 0c3e c93d b6bd 598e b7bd 3e77 22be
000003f0: ad8f 043e 92b6 37bd 872c 90bd 6e26 33be

gru.bias_hh_l1 f4 [384]
-0.06303459 -0.014028606 -0.0457928 -0.15246779 -0.16690058 0.009348567 0.03640358 0.09930807
0.1162566 0.04086471 -0.081139915 0.0685702 0.10915496 -0.15343426 0.07300345 -0.1274002
-0.0033245871 -0.10787034 0.03925058 0.110928886 -0.15004398 -0.1784033 -0.072045624 -0.08993505
-0.04477319 -0.004097427 -0.01361122 -0.06939035 -0.09232197 -0.19977985 0.046885133 -0.0754804
-0.0052051735 0.03165182 0.12118063 -0.16004966 -0.082724325 0.032373972 -0.15883401 0.018638315
-0.12717892 -0.08098405 -0.03678857 -0.10852417 -0.052906077 0.10455317 0.03690891 0.008873248
0.014508121 0.012637763 -0.030563513 -0.048676528 0.08201827 -0.2180925 -0.112592496 -0.060462747
0.1568483 0.029183866 -0.13586952 0.035124674 -0.058734123 -0.17715208 -0.041195855 -0.113819525
-0.12655023 -0.023565507 0.11770438 0.15325472 -0.14758338 0.00014184523 0.041293107 -0.090031385
-0.049963046 0.06606425 -0.109043755 -0.016600583 -0.12112781 0.027439144 -0.056038596 -0.14989062
-0.124568865 -0.11670309 -0.17314346 0.07108203 0.11028116 0.042561557 -0.075080134 0.07561711
-0.021901863 -0.0441912 -0.10050407 -0.005809388 -0.20987745 0.007874932 -0.073626004 -0.23429114
0.12493072 0.10334141 -0.21157388 0.027223732 -0.13865902 0.09892356 -0.07800285 -0.0718189
-0.07194557 -0.05176679 -0.002026114 -0.048147865 0.00817376 -0.07867671 0.04698417 -0.0019242379
-0.04311018 -0.1804261 -0.01007741 -0.014923519 -0.0778041 -0.08379834 -0.1009525 -6.721812e-05
-0.10510508 0.006426871 -0.025834799 0.058098152 -0.086814724 0.04070022 -0.12487002 -0.19651687
-0.066027716 -0.02569489 -0.13671517 0.0044364603 -0.069029555 0.07081662 -0.18694119 -0.14911768
-0.14266199 -0.13483289 -0.09233678 0.089220986 -0.17885268 0.011627316 -0.13702765 0.011238794
-0.17389382 0.06541179 -0.029025678 -0.20388949 -0.034116413 0.17573452 -0.20768638 0.20781481
-0.016021442 -0.09205549 -0.28949735 -0.062520094 -0.044992376 -0.12096781 -0.031603046 -0.1891159
-0.1247183 -0.19386128 -0.08985093 -0.081216626 -0.14003704 -0.11632222 -0.046933956 -0.063288316
-0.12599522 0.13700749 -0.08285314 -0.08154521 0.061687846 -0.16335928 -0.06641788 0.017405573
0.13112678 -0.083448656 -0.09383564 0.07422656 0.007942898 0.14492717 0.015996642 0.09413615
-0.23804535 -0.093271516 -0.1299939 -0.08551401 -0.19953671 0.057180725 -0.006777232 -0.23905772
-0.1321339 -0.025117246 -0.1489783 -0.1456871 0.14768852 0.0040931595 0.032931183 0.020528274
-0.12892185 -0.14042065 0.16851959 0.036611643 -0.049064446 0.15214 -0.2017293 0.10518387
0.07378406 0.026896209 -0.0048879315 -0.08719774 0.051596053 0.24257515 0.12828535 -0.027253555
-0.1630653 -0.12383639 -0.0898515 -0.11574495 -0.089645445 -0.20992713 0.009973901 0.05770278
-0.09636112 -0.23241884 0.15049244 -0.08526798 -0.049928073 0.053192053 -0.069682695 -0.11333243
-0.11917573 -0.20998806 -0.039576378 -0.08244838 -0.10655671 -0.09726859 -0.12852223 -0.07252552
-0.09242029 0.0078982 0.13637386 -0.14692234 0.008378485 0.17057444 -0.057916146 0.13007376
0.15033662 -0.19097164 -0.15928419 -0.049761105 0.100190654 0.036987767 -0.19750704 -0.089392394
00000000: 4718 81bd 3dd8 65bc 3b91 3bbd 8420 1cbe
00000010: fce7 2abe bb2a 193c ec1b 153d 0862 cb3d
00000020: f117 ee3d c161 273d af2c a6bd 886e 8c3d
00000030: a38c df3d df1d 1dbe d582 953d 3375 02be
00000040: 51e1 59bb 20eb dcbd 37c5 203d af2e e33d
00000050: 21a5 19be 5baf 36be a88c 93bd de2f b8bd
00000060: 1864 37bd b543 86bb 9801 5fbc 871c 8ebd
00000070: 4d13 bdbd 1793 4cbe a00a 403d 7895 9abd
00000080: 2990 aabb 57a5 013d 8d2d f83d 0fe4 23be
00000090: 5f6b a9bd 929a 043d 62a5 22be 61af 983c
000000a0: 313b 02be f7da a5bd 9daf 16bd ec41 debd
000000b0: 0bb4 58bd f91f d63d cc2d 173d 1961 113c
000000c0: 78b3 6d3c 9f0e 4f3c 5560 fabc 0a61 47bd
000000d0: 32f9 a73d a453 5fbe e596 e6bd c9a7 77bd
000000e0: d79c 203e 0113 ef3c 6121 0bbe e4de 0f3d
000000f0: 3193 70bd 5b67 35be fcbc 28bd 361a e9bd
00000100: 6296 01be 730c c1bc fe0e f13d ceee 1c3e
00000110: 1920 17be 4abc 1439 f622 293d 6062 b8bd
00000120: 0da6 4cbd b24c 873d 5552 dfbd f2fd 87bc
00000130: db11 f8bd 0ec8 e03c ba88 65bd ed7c 19be
00000140: f61d ffbd 0802 efbd 854c 31be 7593 913d
00000150: 17db e13d 0755 2e3d 9dc3 99bd 25dd 9a3d
00000160: 896b b3bc d501 35bd 14d5 cdbd ae5c bebb
00000170: 1dea 56be dc05 013c 3bc9 96bd 04ea 6fbe
00000180: addb ff3d a9a4 d33d d3a6 58be 4e04 df3c
00000190: a1fc 0dbe 6f98 ca3d f5bf 9fbd ca15 93bd
000001a0: 3358 93bd 6a09 54bd 8dc8 04bb b236 45bd
000001b0: 3ceb 053c 4121 a1bd 7972 403d b636 fcba
000001c0: 4d94 30bd 9fc1 38be b91b 25bc c781 74bc
000001d0: c257 9fbd 779e abbd 2fc0 cebd 74f7 8cb8
000001e0: 5541 d7bd 8098 d23b 80a3 d3bc 54f8 6d3d
000001f0: ebcb b1bd 46b5 263d dabb ffbd b83b 49be
00000200: 8a39 87bd 177e d2bc 10ff 0bbe ba5f 913b
00000210: 5e5f 8dbd 4e08 913d 836d 3fbe 4eb2 18be
00000220: fc15 12be a211 0abe 111b bdbd 7eb9 b63d
00000230: 2825 37be 7f80 3e3c fa50 0cbe eb22 383c
00000240: 3911 32be 9ef6 853d 42c7 edbc 68c8 50be
00000250: a7bd 0bbd c0f3 333e bdab 54be 68cd 543e
00000260: 663f 83bc 9787 bcbd ff38 94be 890a 80bd
00000270: ed49 38bd f9bd f7bd 3272 01bd 99a7 41be
00000280: 4f6c ffbd 9283 46be c403 b8bd e754 a6bd
00000290: df65 0fbe 583a eebd d23d 40bd 4e9d 81bd
000002a0: e404 01be b14b 0c3e e8ae a9bd 2d01 a7bd
000002b0: 65ac 7c3d a847 27be 1906 88bd 2296 8e3c
000002c0: 1946 063e 21e7 aabd e62c c0bd 1804 983d
000002d0: ee22 023c ca67 143e 640b 833c 74ca c03d
000002e0: 29c2 73be 2305 bfbd 1f1d 05be f821 afbd
000002f0: 5a53 4cbe 5636 6a3d 8b13 debb 8ccb 74be
00000300: 1c4e 07be afc2 cdbc c48d 18be 002f 15be
00000310: a93b 173e e91f 863b d9e2 063d e92a a83c
00000320: 1704 04be 6eca 0fbe 6690 2c3e 17f6 153d
00000330: cdf7 48bd 97ca 1b3e 2092 4ebe a46a d73d
00000340: 191c 973d 7055 dc3c f12a a0bb bb94 b2bd
00000350: 6256 533d 9f65 783e 3c5d 033e d942 dfbc
00000360: 97fa 26be ef9d fdbd 1004 b8bd b00b edbd
00000370: 0898 b7bd 23f7 56be 9369 233c c059 6c3d
00000380: fb58 c5bd 34ff 6dbe b11a 1a3e fba0 aebd
00000390: 6181 4cbd e9df 593d cdb5 8ebd d51a e8bd
000003a0: 6812 f4bd 1c07 57be d71a 22bd b2da a8bd
000003b0: 683a dabd c134 c7bd 559b 03be 4388 94bd
000003c0: d946 bdbd 7467 013c 97a5 0b3e cf72 16be
000003d0: ea45 093c 11ab 2e3e 7b39 6dbd 0e32 053e
000003e0: d8f1 193e 128e 43be 651b 23be 4dd2 4bbd
000003f0: c230 cd3d 7c80 173d 493f 4abe 5c13 b7bd
